policy_dqn_test.pth (torch, 22837 bytes, 6 tensors)

fc1.weight f4 [64, 6]
00000000: 677a 683f baff abbe 844c 803d ca08 313f
00000010: d4f6 30bf 9718 79bf e046 b73d 0430 073e
00000020: 4aee 533f 466c ad3f 8ca8 ac3f 3084 97bd
00000030: 1629 c2be 7bf8 113e f2c6 fdbf b86c 8bbe
00000040: 0e93 1a3f 3cd6 d6be 30fe b33e 186f 2a3f
00000050: ffa0 9f40 4d26 5bbe de24 dd3e 159b cb3d
00000060: 7c1f 80bc 0f87 dfbe 6e65 42be 1330 d53d
00000070: 71e7 45c0 edad 8cbd ca4b e9bc 8322 f5be
00000080: d428 1ac0 70c0 26c0 2a4e c93e 5708 503f
00000090: c1ab 493e 3847 b3be 0bc2 9a3f c386 e33f
000000a0: c1f3 a6bd 481a 2d3c d4d4 563d b3db e23e
000000b0: 689d c8bf ff49 a13f eb79 823e 9702 91be
000000c0: 9ccd 42bf d635 97bf 67de 323f 0b1a 13be
000000d0: b2d4 77c0 c9b9 4f3d 6b20 eb3e 6ae1 f83b
000000e0: f601 2440 7457 1cbe 1afb 08c0 862c 99bd
000000f0: 6c08 68be 546b 6ebe 98b4 dfbd d61d 07be
00000100: 8826 8ebe 3aeb a83e 65f7 87be 52a0 5abe
00000110: bb82 1440 af63 83bf 2fdb 883f 4302 12be
00000120: 0626 06be 1555 893e f315 e6c0 73e8 a33d
00000130: 6d4d 0f3c 690c 0ebd d49f 16be 80dd d4bc
00000140: 2efc 0ebe 40ce f5bc d053 4bbd 0c5a 5f3e
00000150: e9b9 543e a441 bbbe 0b67 98be 41a4 5abd
00000160: 582d 82bc dac2 adbd a500 82be 10b5 98bd
00000170: 4602 4cbe 8026 383c 38bb 9abe 4002 d1bd
00000180: f436 ebbe 8b64 6cbe fe0f 423e 76f5 b63c
00000190: 94a4 b0be 07d8 06be d53a 0fbd b563 4bbf
000001a0: 2e06 bcbf 9c6b 11c0 9893 1abf f2b9 993e
000001b0: 8ddf 803d 2b35 2a3e 94b5 2e3f b4c1 b63f
000001c0: 3e35 b7bf 9ea5 033e b6fe ccbd 2138 933e
000001d0: 1bee 0fc0 07fe 45bf 6425 bb3e 9e83 1a3d
000001e0: 04f8 09bd a875 b5bf 0589 a93f d6cf b7bf
000001f0: 5ae3 dbbc 92eb 8d3d f07b dd3d 80b2 38bb
00000200: d1ab 91be fc10 b9bd 6292 a0be 16a3 8cbe
00000210: fb9f 723e e580 d93d d9c9 133d d9b2 f33e
00000220: bcf7 e43e d8a8 193e 38f4 203e 9ab7 e4bd
00000230: fdb0 40be c31c 1e40 8b45 b13d 02ec bb3e
00000240: b221 d4be 216e 303d e5ff 03c0 6972 52bf
00000250: 4f00 0740 5725 cebe 92ac 89be a4f5 2d3f
00000260: 4d9c efbe 822a 123f f411 45c0 3944 77bd
00000270: 2476 cfbd cf3a 0bbf b05e 39be 5d09 4f3d
00000280: 578e e3bd 3fd0 ae3d acb5 2f3e 3411 2abd
00000290: 0ca6 d73f b70d 293f 44c9 26c0 6e5f 5fbe
000002a0: 00b7 013f dceb b53e b9a9 55c0 db5e 55bf
000002b0: 21c3 133f 911d 613f f544 d0bd 13c3 d5be
000002c0: 70e9 9f40 7a48 39bf 64f1 223f ac23 43bc
000002d0: d4ff 2abf 4bcf 2dbf 75ee 463f 60be 0cc0
000002e0: 345a 6e3f 341d 81be b00f 88bd 72ea 09ba
000002f0: 774e 09bf 553f 633e baad 47c0 183a e83c
00000300: a64c ae3e d393 da3e 0d3e adbf 654a 71be
00000310: f720 51be 5c03 0a3e b5fb 473d c7d5 43be
00000320: 35a4 ac3f 5fa7 63bd 126a 5e3d d566 333f
00000330: 327b 1f3f ce84 ac3e 4a33 9cc0 3f38 f13d
00000340: eea3 aa3d dc98 a5bf 909b 4f3e d4e8 90be
00000350: a10b 52c0 988b 32c0 c9a2 a23d c7dc 2dbe
00000360: 79e6 c43e 068f 7b3e e2e7 8abf f84f 38be
00000370: 9d48 8ebe 0df9 8f3d 34b8 c2be 0ef8 9a3e
00000380: a0f0 153d 805f 033c 9a53 85be 40d4 cf3c
00000390: fc14 10be f728 d83e e734 edc0 5180 e13c
000003a0: 9d9e 2d3f 96a6 c23c ceb0 173d 693c 263e
000003b0: 1f81 48be 610a af3e f82e 63bd 27be 3a3e
000003c0: d0b1 193f e7f6 863e 83ef 4ac0 bdd6 efbe
000003d0: ea33 e13e a409 583f da4c 41bf 86a7 1cbf
000003e0: ea2d a33f 2341 b0bf e7d5 3dbf 5c06 49b9
000003f0: 4987 52bd c345 b8be 9a4f 483f 44eb 92bf
0.9081177 -0.3359354 0.06264594 0.69154036 -0.6912663 -0.97303146 0.08949065 0.1320191
0.82785475 1.3548667 1.3488936 -0.0739826 -0.3792197 0.14254944 -1.9826338 -0.27231383
0.6038064 -0.41960323 0.35154867 0.66575766 4.988403 -0.2140133 0.4319219 0.09941689
-0.015640013 -0.4365773 -0.18984005 0.1040956 -3.092251 -0.06869111 -0.028478522 -0.47877893
-2.408742 -2.6054955 0.39317447 0.81262726 0.19694425 -0.35015273 1.2090467 1.7775501
-0.08151961 0.010565348 0.052449062 0.44308242 -1.5673037 1.2600707 0.2548364 -0.28322288
-0.76094985 -1.1813304 0.6987061 -0.14365403 -3.872357 0.050714288 0.4592317 0.007595231
2.5626197 -0.15267736 -2.140326 -0.07479195 -0.22659463 -0.2328313 -0.109231174 -0.13194975
-0.27763772 0.32991964 -0.26555935 -0.2135022 2.3204792 -1.0264796 1.069189 -0.14258675
-0.13100442 0.26822725 -7.1901793 0.080033205 0.008746487 -0.034679804 -0.14709407 -0.025984526
-0.13963386 -0.030005574 -0.049640477 0.21811694 0.20774044 -0.36573517 -0.29766116 -0.0533793
-0.015890762 -0.084844306 -0.25391117 -0.0745641 -0.19922742 0.011239648 -0.30220962 -0.10205507
-0.45940363 -0.23085229 0.18951413 0.022333842 -0.34500563 -0.13168345 -0.034968216 -0.79449016
-1.4689386 -2.272193 -0.6038146 0.30024678 0.06292639 0.16621844 0.68245816 1.4277864
-1.4313123 0.12856147 -0.1000952 0.2875376 -2.2489078 -0.7734074 0.36551964 0.037723176
-0.03368379 -1.4176531 1.324494 -1.4360301 -0.026841808 0.06929697 0.10814655 -0.0028182566
-0.28451398 -0.09036443 -0.3136168 -0.27468175 0.2369384 0.10620288 0.03608117 0.47597387
0.44720256 0.15005815 0.15718162 -0.11167832 -0.18817516 2.4705055 0.086558424 0.36703497
-0.41431957 0.043073777 -2.0624936 -0.82205826 2.1093938 -0.40262863 -0.26889473 0.6795294
-0.46798936 0.5709611 -3.0792208 -0.060367797 -0.101299554 -0.5438661 -0.18102527 0.05054604
-0.111111335 0.085358135 0.17159146 -0.041520312 1.6847548 0.6603655 -2.6060343 -0.21813747
0.5066986 0.3553151 -3.338484 -0.8334786 0.5771962 0.8793574 -0.101694025 -0.41750392
4.997246 -0.72376215 0.6364958 -0.01191036 -0.6679661 -0.6789443 0.77707607 -2.1991196
0.9310639 -0.25217593 -0.06643617 -0.00052610703 -0.5363535 0.22192128 -3.1199784 0.028348014
0.34042853 0.42690906 -1.3534561 -0.23563536 -0.20422731 0.13477844 0.04882403 -0.19124518
1.3487612 -0.05557954 0.054300375 0.70078784 0.62297356 0.33695072 -4.881261 0.11778306
0.08332048 -1.2937274 0.20274186 -0.28302634 -3.2819598 -2.7897701 0.07941205 -0.16978751
0.38457087 0.24566278 -1.0852015 -0.17999256 -0.27789775 0.070299245 -0.3803116 0.30267376
0.03660643 0.008018374 -0.26040345 0.025369763 -0.14070505 0.42218754 -7.412708 0.027527006
0.6782015 0.023761075 0.03703385 0.16233982 -0.19580506 0.34187606 -0.055464715 0.182366
0.60036945 0.26360247 -3.1708686 -0.4684352 0.4398492 0.8438971 -0.7550789 -0.6119312
1.2748387 -1.3769878 -0.74154514 -0.00019171223 -0.05139855 -0.35990724 0.7824646 -1.1478047

fc1.bias f4 [64]
00000000: d3f5 073f c82b 81bf d0f1 f5bd 9ef9 33bf
00000010: c4cb 543f 4d6e 39be 26fb 97bf 48e4 063f
00000020: 1938 823f 7814 50bf 83d9 8cbe 2965 01c0
00000030: 1ab1 4f3f 0dfa bcbe 7ddb 8fbe a5d2 bfbe
00000040: 256a 24bf 1fed 90bd 0fca 61bf d573 a83e
00000050: 8136 963e 889d abbe 0743 043f a292 32bf
00000060: 96eb db3c 65da 163f 48ef d4be 2430 efbe
00000070: de0d 5ebd c8f9 ea3e a2ba 9ebf 3dbd 2b3f
00000080: 38fc 313f 35af 983f 87d6 8a3e 5c16 9bbd
00000090: f32f 573f c6f1 91be e506 193f b1ed 863f
000000a0: 3444 8cbd a168 2c3e 2316 1dbe 57e8 173f
000000b0: 72ae 303f 6f59 c4be da66 b7be 56a6 873c
000000c0: 354d 6ebe 4ea4 553f 79dc 693f ae67 fdbf
000000d0: e774 bcbe 401f 733f 5e86 fdbd b116 50bf
000000e0: f1b0 1ebd b7ec 4f3f 90a3 103d 4c27 043f
000000f0: 163a 8a3f 2217 273f 72d7 503f 0ee5 4d3f
0.53109473 -1.0091486 -0.12009013 -0.7030276 0.8312342 -0.18108483 -1.187352 0.5269208
1.017337 -0.8128123 -0.27509698 -2.0217993 0.8112961 -0.36909524 -0.28097144 -0.37465397
-0.64224464 -0.07076477 -0.8819894 0.32900873 0.29338458 -0.33518624 0.51664776 -0.69754994
0.026845735 0.58926994 -0.41588807 -0.46716416 -0.054212444 0.45893693 -1.2400706 0.6708563
0.6952548 1.1928469 0.27116796 -0.07572624 0.8405754 -0.2850477 0.59776145 1.0541288
-0.06848946 0.16836788 -0.15340476 0.593389 0.6901618 -0.38349482 -0.35820657 0.016558807
-0.2327164 0.83453834 0.9135204 -1.9797266 -0.3680794 0.9496956 -0.12379144 -0.81284624
-0.038742963 0.81220573 0.035312235 0.5162246 1.0798976 0.6526967 0.81578743 0.80427635

fc2.weight f4 [64, 64]
00000000: 4f24 1ebf 1cf8 8ebe 49d3 97be 0f82 94be
00000010: be85 343e 88be d23d cd22 05be 447e 77be
00000020: 2eff 31be a200 143f c258 93bd 7860 b6be
00000030: 051d 95bd 802e 58bd c7f6 b4bd 9811 be3d
00000040: 260c 80bd bf33 34bf 9e21 83bd 7779 463d
00000050: d677 013e 36fa fcbd 7ef9 63be 8828 d6be
00000060: ad52 cdbd 5f7f 12bf e8f6 633d 023a dbbe
00000070: ab9f a2bd 3d12 a2be 2340 ccbd 527e 08bd
00000080: 14ac 763d afb9 81be e6e4 b3be 1f64 283f
00000090: c8aa 2d3e 920d d7bd 4583 fb3e e419 bebd
000000a0: 061b 693b 1a32 b0be ccc0 adbd d2d0 50bd
000000b0: f842 a13d a1d3 43be f8d5 6dbd 8bec 6abe
000000c0: face f33d 0429 c1be fbc6 6dbd bf6b 293e
000000d0: 6811 21bd a359 74bd 939c 193e fc08 f7bd
000000e0: 1c98 b73e 6962 ea3d bea9 c83d 209a c9be
000000f0: dcc2 44be bcb6 6ebe e21a 433d 1a78 a5bd
00000100: e57d 4b3f 1f77 163e 18b1 363d 6412 193f
00000110: 2dda 45be 1960 923c cb21 693f 6358 873e
00000120: 1e1d cb3e c1ed c73f 18fe 77bd d439 4abe
00000130: a992 1abd e094 7abd cd40 603d f00a 30bc
00000140: 120d 84be 7cac d1bd 458e 8c3f d7ce 6f3d
00000150: cd1d 73be 1486 293d 467e 10be 59f0 223f
00000160: 9504 46bf dcc4 a63f 9ad5 20be d9d0 f33f
00000170: ed08 56be 50c0 ffbd e351 00bf 8884 1dbd
00000180: 6df3 173e 09ba 46bf b173 323d d2dd 49be
00000190: 52da 02be 748b bdbd 9790 293d 96f1 cebe
000001a0: 1aab 40be 3afb 24be 9602 753d 3c5f 73bf
000001b0: cf54 4c3f 9582 183c 30d7 213c 3e33 093e
000001c0: 7e2d 84bd 1d9c 00bf 33a9 5fbe ea72 9b3e
000001d0: 7d63 b43d 5e85 7ebd 13c6 ddbc 74a0 70be
000001e0: d204 f93d a443 75be 1618 68be 0eb2 243d
000001f0: 9f63 b53d ff14 013e 4784 c6be 683a 88be
00000200: 00c5 3a3b 705f 6e3c 93af 4abe 922a 94bc
00000210: 2b6a d7bd b5cb 183d 9640 83bd 406f cebd
00000220: 6e30 1ebe 469f d2bc 4c1c d8bd d4fd 46be
00000230: fa3f d73b 3477 923d 0085 bc3c 3ed3 b33d
00000240: 4ec5 f3bd 013e 13bd 4071 5a3b f96b ffbd
00000250: 2cac 62bc aec9 ebbd 9804 e53d 62f0 9cbd
00000260: e008 ef3d d0be a3bc 6290 c7bd 5e3b 8dbd
00000270: 9846 443d 71c9 56bd 6630 10bb 1ff0 c0bc
00000280: e8eb 0fbe ef55 32be bcf1 4cbd 6973 35be
00000290: e527 13be 18a8 99bd 8ca9 3fbe 3e41 bcbd
000002a0: 1c0f b6bd c29c f9bd 4ca9 31bd 4c19 3fbd
000002b0: d6ea 27be 2844 23bd 10d5 f53c d304 bbbd
000002c0: 868d a13d f5c2 86bb 628e b83c b429 d83d
000002d0: 08ba 21bd 7c56 90bd 2485 fe3d e765 38be
000002e0: 795b 63bd 9ca4 52be 28dd a5bd 3e86 d4bd
000002f0: b3ac 92bc 2285 48be 0f6e 82bc 52e1 54be
00000300: 44cf 11bd 244d 04bd 604d ccbb e8ee 42bd
00000310: e0df 87bd 3c5c 463d 5abf fcbd b6c0 ae3d
00000320: 74bb 9ebd 7289 d6bd e03a 93bb 688c b73c
00000330: 86d1 aabd 2c43 94bd 00fe eabd 7061 e23c
00000340: dcd6 a03d ca56 893d 82de ec3d f4c1 673d
00000350: 54b6 80bd a0ae 8b3d c0f0 4d3d 0cec 093d
00000360: 667a 94bd 78e5 c43d 1098 1ebd 00fc 69bb
00000370: 1637 a83d feb1 c0bd 3e19 a1bd e038 dbbb
00000380: eece dfbd 9c18 b3bd 209c dc3d d011 573d
00000390: 7ab9 e13d 04f1 6f3d e664 b33d 407c 9abb
000003a0: d805 e2bc 281d 7abd b89a 633d aaf4 b03d
000003b0: 00f6 37ba a04b 423c 7cec 36bd 10fa 4cbd
000003c0: 48ff 733d aca6 b4bd 689f 60bd bcd3 96bd
000003d0: f8c7 5e3d 2cb1 9cbd 708f c6bc 362d a4bd
000003e0: ac78 693d 02f5 acbd 904f e5bd 68c8 fcbd
000003f0: f230 eabd 3890 2abd 4483 71bd 20ec 2ebc
-0.6177415 -0.27923667 -0.29653385 -0.29005477 0.17629144 0.10290247 -0.13001557 -0.2416926
-0.173825 0.57813466 -0.071946636 -0.35620475 -0.07280926 -0.05277872 -0.088361315 0.092806995
-0.06252317 -0.7039146 -0.06402896 0.04845568 0.1264337 -0.123524114 -0.22263142 -0.41827798
-0.10025535 -0.572256 0.05565539 -0.42817694 -0.079406105 -0.3165454 -0.099731706 -0.033323593
0.0602227 -0.25336978 -0.35135573 0.6577777 0.16959679 -0.10500635 0.49123588 -0.09282282
0.0035569086 -0.34413224 -0.08484039 -0.050980397 0.078741014 -0.19123699 -0.058065385 -0.22941796
0.11904712 -0.37726605 -0.05805109 0.16545008 -0.03932324 -0.059655797 0.15001135 -0.120622605
0.35858238 0.114445515 0.09798001 -0.393754 -0.19214958 -0.23311895 0.04763306 -0.08079548
0.79488975 0.14693879 0.044602484 0.59793687 -0.19321509 0.017868089 0.9106719 0.2643462
0.39670652 1.5619432 -0.060545057 -0.19748622 -0.037737522 -0.061177135 0.0547493 -0.010744795
-0.25791222 -0.10237977 1.0980917 0.058546867 -0.23741837 0.041387632 -0.1411067 0.6364799
-0.7735074 1.3028827 -0.15706483 1.904811 -0.20901842 -0.124878526 -0.5012495 -0.03845647
0.14838953 -0.7762762 0.043567363 -0.19713524 -0.12778595 -0.09255114 0.041397657 -0.4041869
-0.1881527 -0.1611146 0.05981692 -0.9506719 0.7981691 0.009308477 0.009877965 0.13398454
-0.064539894 -0.5023821 -0.21841888 0.3036111 0.088080384 -0.062138908 -0.027071988 -0.23498708
0.121591225 -0.23951584 -0.22665438 0.04020887 0.08856892 0.12605666 -0.38772795 -0.2660706
0.0028498769 0.014549121 -0.19793539 -0.018086705 -0.10518297 0.037303645 -0.06408803 -0.10079813
-0.15448162 -0.025710713 -0.10552272 -0.19432765 0.006568906 0.071516424 0.023012638 0.087805256
-0.11902867 -0.035947803 0.0033331662 -0.12471766 -0.013834994 -0.11513077 0.11182517 -0.07663037
0.11671615 -0.019988447 -0.09744336 -0.06896089 0.047918886 -0.052438203 -0.0022001504 -0.023551999
-0.14054835 -0.17415594 -0.050035223 -0.17719807 -0.14370687 -0.075027645 -0.18717021 -0.091921315
-0.08889601 -0.12188102 -0.043374345 -0.046654984 -0.16398177 -0.03985992 0.030008823 -0.091317795
0.078883216 -0.004112596 0.02252883 0.10554829 -0.039484054 -0.070477456 0.12427738 -0.18007623
-0.055507157 -0.20570606 -0.08098823 -0.10377167 -0.017904615 -0.19582036 -0.01592162 -0.20789078
-0.035598055 -0.03230013 -0.0062348098 -0.04759112 -0.06634498 0.048427805 -0.12341185 0.085328504
-0.077505976 -0.10475434 -0.0044931024 0.022405818 -0.08340745 -0.072393745 -0.11474228 0.027634352
0.07853481 0.06706007 0.115658775 0.056581452 -0.06284776 0.068204165 0.050278425 0.033672377
-0.07249908 0.0961408 -0.038719237 -0.0035703182 0.08213632 -0.09408949 -0.07866143 -0.0066901296
-0.109281406 -0.08744928 0.10771966 0.05250722 0.11021705 0.05857946 0.08759479 -0.004714519
-0.027590677 -0.06106296 0.055567473 0.08640416 -0.0007017553 0.011858851 -0.044659123 -0.050043166
0.059569627 -0.08820853 -0.05483952 -0.07364604 0.054389924 -0.0765098 -0.024238318 -0.08016436
0.056999847 -0.08445169 -0.11196816 -0.12342912 -0.11435117 -0.041641444 -0.058963075 -0.010676414

fc2.bias f4 [64]
00000000: f8c1 14be 69e1 8cbe 3a5b 26be f007 8fbc
00000010: 8ad0 aa3f 3844 5cbd 0c3f 343d e6dc 09bc
00000020: 7840 1b3f 7dff e4bd d69b 16be b2f2 b9bd
00000030: 66cb 00be b50b 9fbe 6f39 8dbe 4ebf e4bc
00000040: d614 fb3e cb69 2fbd 573d 86bd 9154 3bbe
00000050: 589d 05be 1c7f 14be 1df3 a5be a338 0dbf
00000060: 4582 a93f e049 32be b968 883f 5c88 823f
00000070: fb0e b43f 036c 1fbd 5fd6 0cbf 7a33 d2bd
00000080: ae0a f0bc 6258 20be b4a0 8e3c 6d4e 3bbe
00000090: 4f6e a0bd dfd3 113f ebba 79be 1e0a d83e
000000a0: 030e 80be 1d92 8dbd 416f 813f 4151 90bd
000000b0: 45ec bd3e 54ce 9bbe f04b 22bd d3a1 bebd
000000c0: f1e4 813f e5ae a03f ac7c 5ebd da6b 06bf
000000d0: 9373 c7bd edc7 e7bd b95c 2fbe 5f01 4cbe
000000e0: 1b2a 02be 93fa a93f 53ad b5be 2d10 ccbc
000000f0: 720a dc3e 178c b63f 9280 e73b f09a f8bd
-0.14527118 -0.27515724 -0.16245738 -0.01745984 1.3344891 -0.053775996 0.04400544 -0.008414483
0.60645247 -0.11181543 -0.14707884 -0.090794936 -0.1257759 -0.3106362 -0.2758288 -0.027923252
0.49039334 -0.0428255 -0.065546684 -0.18293978 -0.13048303 -0.14501613 -0.32412043 -0.55164546
1.324288 -0.17410994 1.0656959 1.0197864 1.4067072 -0.038921367 -0.55014604 -0.102637246
-0.029301967 -0.15658715 0.017410614 -0.18291636 -0.0783354 0.56963915 -0.2438771 0.4219522
-0.2501069 -0.069126345 1.0112077 -0.07046748 0.37094322 -0.30430853 -0.0396232 -0.09308209
1.0147992 1.2553374 -0.054318115 -0.5250832 -0.09738841 -0.1131743 -0.17125215 -0.19922398
-0.12711374 1.3279594 -0.35483798 -0.024910057 0.4297672 1.4261502 0.0070648873 -0.12138927

fc3.weight f4 [5, 64]
00000000: 0e56 a33e f1cf 11bf 88d9 9ebd a85a 433d
00000010: d119 053f be41 c83d 5c09 29bd 41ab b83c
00000020: 83bb de3e 50e3 02c0 f862 fbbc a2da 823d
00000030: 94a0 033e 0a4d 063d e3ad ddbf 2bd6 703f
00000040: 231c f73e fb9b 8bbc 9578 4e3d 50ef b93c
00000050: 780e 06bc f007 23bf 5d71 3e3e 0803 e9bd
00000060: a35b 6e3f c0ea 8b3b 2032 493f 3c55 353f
00000070: cbe2 a13f 6802 b5bf 81fc e1bf 6f35 81ba
00000080: 9798 d13c c23e ef3d 6408 17bf 0064 d33c
00000090: 036a 4dbf 0a83 1c3f b0dd 343d e05c 9b3e
000000a0: 777c bfbf f74f 0d3e 7386 bd3f d3fc f3bd
000000b0: f007 8c3f 42d3 513e 02a9 95bd a928 7cbb
000000c0: 8a72 323f dff6 633f d1dd 433e 5db4 043e
000000d0: c35c 183f f46b 0c3c 7b90 89bf 9c04 febe
000000e0: cf3d e5bc c95e 3a3f 3fcb 07c0 d853 673c
000000f0: a613 a13f b8d7 1740 9fb6 b5bd b14c 3fbe
00000100: 456d 2abe 8468 013e 265e aebd 3471 9e3d
00000110: 3c9c 4f3f 0659 a9bd e45e 3abd 8da4 be3d
00000120: 6fa9 f3bd 2619 abbf e048 443d 0ce3 2a3d
00000130: c2f7 073d 23eb eb3e f95b 6fbf 4955 81bf
00000140: ccec d43e 03d4 12bd 9a7e 23bd cd9e e7bc
00000150: db23 403d 0143 0dbf a042 2dbe e7f5 703e
00000160: 1900 7b3f c0bb 9dbc ab3b a03e fd4b 0d3e
00000170: 64c6 493f 2ad8 3abf e9a7 53bf 3d16 963d
00000180: 1423 06bd a0c1 a6bd b8ac 19bf 88d3 3a3d
00000190: 69e4 27be 366c 7e3e be27 0d3e 7fab e33e
000001a0: 95d6 4fbf dfcc 163e e766 3640 d6f2 34bd
000001b0: 2860 b03e ef17 873e 28e4 7dbd 0db7 f03c
000001c0: a236 b33e aede 593d d80e 853e 223d 71be
000001d0: 3c99 fbbe 9e55 2f3d d707 48bf 9e85 ccbf
000001e0: 04b9 c6bc 4d54 713f b4c7 54bf ea1a d9bc
000001f0: 476b 78be 933c 0b40 583f b4bd db70 9d3c
00000200: f46d 18be ddcf 13bf 4044 22bb 7c9b 42bd
00000210: 7c2d 5d3f e850 d5bc f82d a1bc f378 063f
00000220: b215 533f bbd9 08c0 ad49 173d 24b4 3fbd
00000230: 18ea 23b9 9d32 a63d f406 ccbf 2553 073f
00000240: de01 cc3f 21ac e83d 996b 80bd 1092 41bc
00000250: 11cc 343d 937e 91be 2f2c 553e 1afc 3dbd
00000260: d4f0 4f3f 3bf7 2dbd 71f6 3c3f 4b46 583f
00000270: c886 2a3f 4579 c5bf 3d1e c1bf 4027 c83d
00000280: e8ae 70bd 600b 70bd abfe 003f 0df4 cabd
00000290: ddc8 953e f97e 913f e6fa 1dbe 1105 80be
000002a0: 24a4 d7bf 0be6 183d 866e d23f fd83 d53d
000002b0: 18e5 05bf 3f3a a63e 0806 c4bd e31f 34be
000002c0: f6f3 503f 6ac6 8e3f 7d60 083e c387 7a3d
000002d0: 3c2c 473e f323 e3bd 96ff 2bbf a38a b4bf
000002e0: 2bad 973c fa16 6e3f 6382 00c0 56ff 38bd
000002f0: a03c 783f 8871 843f 430c 613d b53d d23c
00000300: 28b2 143e be1a 43be b8e6 de3d 6e8a d63d
00000310: ae19 9a3f 9c2b 2c3d cc46 3b3d 9ed9 5738
00000320: 14f2 4f3d 7635 efbf 0459 90bd 0005 da3c
00000330: f3d0 8dbc 2c8d 8e3e cf57 0ec0 a50d c93f
00000340: 6c83 1c3f c723 66bd 8d3d af3d 4377 883e
00000350: 88df 323d 806e 5dbe 5db0 403e 4749 ebbd
00000360: c678 dc3f c871 08be 34fc b5bd e11d 50be
00000370: f0d8 f03f a01b 62bf d26e 33c0 dc74 e93d
00000380: a065 cabc 96f6 9fbd 1d7d a4be 7aa9 16be
00000390: 1039 e6bd 4358 82be ff76 1ebe 0125 a23f
000003a0: aa12 dabf 72bc 0cbc 5bb2 bd3f 3d04 47be
000003b0: cbe1 053f 34bb 883e dccb e13d adb9 633c
000003c0: 698a babe dbc2 103e b591 123e ad53 e8be
000003d0: 23db c03f cc35 c9bb dd66 91bf 7662 c5bf
000003e0: a3b4 9ebd 397f 823f 4f78 0cc0 c63a 4f3c
000003f0: 9d86 ba3f fbad d93f 5131 2abe d1ce 20bc
0.31901592 -0.5695792 -0.077563345 0.04769388 0.5199252 0.09778164 -0.04126869 0.022542598
0.43502435 -2.045124 -0.03068684 0.06389357 0.12854224 0.032788314 -1.7318691 0.94076794
0.48263654 -0.01704215 0.050407965 0.02269712 -0.008182161 -0.63683987 0.18597932 -0.11377531
0.93108577 0.0042699277 0.7859211 0.7083318 1.2647337 -1.4141359 -1.7655183 -0.0009857843
0.025585456 0.11681892 -0.5899718 0.02580452 -0.80239886 0.6113745 0.04415673 0.30344296
-1.4959859 0.13800035 1.4806656 -0.11913457 1.0939922 0.20490745 -0.07307626 -0.0038476384
0.6970602 0.8904857 0.19127585 0.12959428 0.59516543 0.00857066 -1.0747217 -0.49612892
-0.027983574 0.7280088 -2.1217802 0.014119111 1.2584121 2.3725414 -0.08872723 -0.18681599
-0.16643246 0.12637526 -0.08514051 0.077364355 0.8109777 -0.08268933 -0.04550065 0.09308729
-0.11897551 -1.336705 0.04792106 0.041720435 0.033195265 0.46077833 -0.93499714 -1.0104152
0.41586912 -0.03584672 -0.03991566 -0.028273964 0.046909194 -0.55180365 -0.16919947 0.23531304
0.98047024 -0.019254565 0.31295523 0.13798518 0.78818345 -0.7298609 -0.82678086 0.0732846
-0.032748297 -0.081424 -0.6002917 0.04561189 -0.16395725 0.24845967 0.13784692 0.4446678
-0.811868 0.1472659 2.8500307 -0.0441769 0.3444836 0.26385447 -0.061985165 0.02938416
0.3500262 0.05319088 0.25987887 -0.23558477 -0.49140346 0.04280626 -0.7813696 -1.5978277
-0.024258144 0.9426926 -0.8311722 -0.026502091 -0.24259673 2.1755722 -0.08801144 0.019218853
-0.14885694 -0.5773905 -0.0024759918 -0.047511563 0.8639753 -0.026039556 -0.01967524 0.52528304
0.8245498 -2.1382892 0.036935497 -0.046802655 -0.00015632098 0.081151225 -1.5939622 0.52861243
1.593807 0.11360956 -0.062705226 -0.011814609 0.044139925 -0.2841688 0.20817636 -0.046383
0.8122685 -0.042472105 0.7381354 0.8448226 0.6661191 -1.5427634 -1.5087353 0.09773111
-0.058760554 -0.058604598 0.5038859 -0.0990983 0.2925481 1.1366874 -0.15427741 -0.25003865
-1.6846967 0.03732876 1.6439979 0.104255654 -0.52302694 0.32466313 -0.09571463 -0.17590289
0.81622255 1.1154301 0.13318057 0.06116463 0.19450468 -0.11090841 -0.6718687 -1.4104809
0.01851519 0.9300381 -2.0079582 -0.045165382 0.96967506 1.0347147 0.054943334 0.02566419
0.14521086 -0.1905317 0.1088385 0.10475622 1.2039087 0.042033777 0.045721814 5.1462666e-05
0.050767973 -1.868819 -0.070482284 0.026613712 -0.017311549 0.2784208 -2.2241094 1.5707289
0.61138034 -0.056186464 0.08556662 0.2665349 0.043670207 -0.21624184 0.18817277 -0.11488586
1.7224357 -0.13324654 -0.088859946 -0.20323898 1.8816204 -0.883234 -2.803639 0.11399242
-0.024706662 -0.078107044 -0.32126704 -0.14713088 -0.112413526 -0.25457963 -0.15475081 1.2667543
-1.7036946 -0.008589851 1.4820055 -0.1943521 0.5229766 0.26705325 0.11025211 0.013899249
-0.36433724 0.14136831 0.14313395 -0.4537634 1.5066875 -0.0061404463 -1.1359516 -1.5420673
-0.077492975 1.0195075 -2.194843 0.01264829 1.4572331 1.700622 -0.16620375 -0.009814934

fc3.bias f4 [5]
00000000: 2816 7d3f 14c2 903f 495f 533f 1f3f 713f
00000010: 6940 4a3f
0.9886193 1.1309228 0.8256727 0.9423694 0.7900453
