policy_dqn_test.pth (torch, 22897 bytes, 6 tensors)

fc1.weight f4 [64, 6]
0	0x3e0c33df	0.13691662
1	0x3ee49e8a	0.44652206
2	0xbf194f55	-0.59886676
3	0xbea393d2	-0.31948715
4	0x3e89f108	0.26941705
5	0xbefa6f82	-0.489132
6	0xbe87aa2d	-0.2649702
7	0x3e429b2e	0.19004509
8	0x3f8152d8	1.0103407
9	0xbfcb0a46	-1.586251
10	0xbc96d3d7	-0.01841156
11	0xbd7cadbb	-0.06168912
12	0x3f2c8a30	0.6739836
13	0x3e353cfb	0.17699043
14	0x3b58588e	0.0033011767
15	0x3f2fe447	0.687077
16	0x3b9620c4	0.0045815427
17	0x3e995204	0.29945385
18	0x3ea97b17	0.33101723
19	0xbe80eb38	-0.25179458
20	0x3e9b0a5e	0.30281347
21	0x3fa32b65	1.2747618
22	0xbe637de4	-0.22215992
23	0x3deef689	0.116681166
24	0x3f315152	0.6926471
25	0x3dfab08c	0.12240705
26	0xbdc01ca3	-0.09380462
27	0x3ebc99f0	0.36836195
28	0x3f1847ae	0.59484375
29	0x3e95dd05	0.29270187
30	0x3e9fb2a5	0.31190982
31	0x3f09d3b5	0.53838664
32	0x3dbec34a	0.09314592
33	0xbcdb814e	-0.026795056
34	0x3ea03131	0.3128753
35	0xbf0a471f	-0.5401477
36	0x3f00f22c	0.50369525
37	0x3e8de880	0.27716446
38	0xbedf31ce	-0.43592685
39	0xbefd6ee3	-0.49498662
40	0x3e6f5549	0.23372377
41	0xbe8e34a0	-0.27774525
42	0xbe0b3056	-0.13592657
43	0x3ee1a505	0.44071212
44	0x3f3d9880	0.7406082
45	0xbf2bdf1b	-0.67137307
46	0xbc3e3ba4	-0.011610899
47	0x3ee76980	0.45197678
48	0xbe42e714	-0.19033462
49	0xbe3d8fbc	-0.18511862
50	0x3f009288	0.5022359
51	0x3fa186eb	1.2619299
52	0xbebeb13e	-0.372446
53	0x3c8d6a82	0.017262701
54	0x3ebf73ba	0.3739298
55	0x3ef47e09	0.47752407
56	0x3df62d80	0.12020397
57	0x3e0db9a3	0.13840346
58	0x3e9b8d14	0.30381072
59	0xbf090c97	-0.53534836
60	0x3f0967a0	0.53673744
61	0x3e189686	0.1490117
62	0x3ed9f76e	0.42571586
63	0x3dce4776	0.10072224
64	0xbfa7b249	-1.3101283
65	0x3dcc6830	0.0998081
66	0x3dbc7598	0.09202117
67	0xbecc4b14	-0.3990103
68	0xbc1a1d80	-0.009406447
69	0x3dadf5a4	0.08494118
70	0xbeb80d71	-0.35947755
71	0x3e87fccc	0.26560056
72	0xbe65ce73	-0.22442035
73	0x3e5f3171	0.21796204
74	0x3db051cd	0.08609352
75	0xbf9a3c5e	-1.2049673
76	0xbf4d0941	-0.80092245
77	0x3e751c1e	0.23936507
78	0xbd919d60	-0.07110095
79	0x3f029b82	0.51018536
80	0x3ec94f1c	0.39318168
81	0x3fa2d9bb	1.2722696
82	0x3e196c98	0.14982831
83	0x3de7be51	0.11315597
84	0x3ef4d922	0.4782191
85	0xbddd032b	-0.1079162
86	0xbed90163	-0.4238387
87	0x3dd50bb5	0.104026236
88	0xbdaaddee	-0.08343111
89	0xbf01e121	-0.50734144
90	0x3f150d88	0.5822377
91	0x3ef39ca7	0.47580454
92	0xbdfc5050	-0.12320006
93	0x3e96ad41	0.29429057
94	0xbf0679c0	-0.52529526
95	0xbe68482f	-0.22683786
96	0x3f5cc796	0.86242044
97	0xbd10dcd4	-0.035366848
98	0x3e83b187	0.2572138
99	0xbd13c5fc	-0.036077484
100	0xbf287db5	-0.65816814
101	0x3e31228a	0.17298332
102	0xbe7deff6	-0.24798569
103	0x3ea8c121	0.32959846
104	0xbe8539ba	-0.26020604
105	0xbf8de006	-1.1083992
106	0xbefa0545	-0.48832145
107	0x3d2eb6af	0.04265469
108	0x3f29bb94	0.66301847
109	0x3f0de7b0	0.5543165
110	0x3d0c11b9	0.03419659
111	0xbdacc845	-0.08436636
112	0xbf30e758	-0.69103
113	0x3dbbb8ac	0.09166083
114	0xbee01fec	-0.43774354
115	0xbe023d8d	-0.12718792
116	0x3ecf7114	0.4051596
117	0x3d014a80	0.03156519
118	0x3f61c965	0.8819793
119	0x3e864d99	0.26231077
120	0x3f11119a	0.5666748
121	0x3e83ebba	0.25765783
122	0x3de582bc	0.11206576
123	0x3ecd1fb4	0.4006325
124	0x3eec7811	0.46185353
125	0x3e4f9b49	0.2027408
126	0x3ec1a650	0.378222
127	0x3e924778	0.2857015
128	0x3ef1a182	0.47193533
129	0x3e4046e4	0.18777043
130	0xbf9a3d97	-1.2050046
131	0x3d7a4700	0.061102867
132	0x3d80fd96	0.06298368
133	0x3ebd5dbd	0.3698558
134	0xbf16101e	-0.5861834
135	0xbe9dfc05	-0.30856338
136	0x3e52ef21	0.20599033
137	0xbf0f9d67	-0.5609955
138	0x3e82a6da	0.25517923
139	0x3d9cb048	0.076508105
140	0xbf31f9a5	-0.6952155
141	0x3df56bec	0.11983475
142	0x3ea22ff0	0.31677198
143	0x3b4e1664	0.0031446451
144	0xbd30c8b6	-0.043160163
145	0x3ea1ae5a	0.31578332
146	0x3ccaf83f	0.024776576
147	0x3d03c7e4	0.032173052
148	0x3ee00750	0.4375558
149	0x3f51cddc	0.8195474
150	0xbebf982f	-0.37420794
151	0x3e5c2fb3	0.21502571
152	0x3db5d9a9	0.08879406
153	0x3f71766c	0.9432132
154	0x3d3b0741	0.045661215
155	0x3d6c537a	0.057696797
156	0x3e4bd668	0.19906008
157	0x3eb67a79	0.35640314
158	0x3e126794	0.14297324
159	0x3f0abe77	0.54196876
160	0x3eac4ec3	0.3365384
161	0xbeb46d15	-0.35239473
162	0x3ed2bf58	0.4116161
163	0x3ddd89b3	0.1081728
164	0xbf509781	-0.81481177
165	0xbe811e17	-0.2521827
166	0xbe850c3f	-0.25985906
167	0x3f52060d	0.8204048
168	0x3ea71061	0.32629684
169	0x3de124ec	0.109933704
170	0xbf2f9bb4	-0.6859696
171	0xbdb6fc25	-0.089348115
172	0x3e4c4dc6	0.19951543
173	0x3d67a54b	0.05655412
174	0x3d9a5fa4	0.07537773
175	0xbe9f475d	-0.31109133
176	0xbe8980d7	-0.2685611
177	0xbdd35a38	-0.10319942
178	0x3db198f0	0.08671749
179	0x3e2aad3c	0.16667646
180	0xbe03db90	-0.12876725
181	0x3c39367a	0.011304492
182	0x3e3068e3	0.17227511
183	0x4009618e	2.1465793
184	0x3d3e1814	0.04640968
185	0x3db6c085	0.08923439
186	0xbdd3184f	-0.10307371
187	0xbc94086c	-0.018070422
188	0x3d82267e	0.06354998
189	0x3d1c9c73	0.03823514
190	0x3e53390f	0.20627235
191	0x3f8cfaed	1.1014076
192	0xbe84ed68	-0.25962377
193	0x3eb9706c	0.36218584
194	0xbe1c9dbf	-0.1529455
195	0xbfc0a00f	-1.5048846
196	0x3e92933d	0.2862796
197	0xbdf28cb0	-0.1184324
198	0x3f05cef4	0.5226891
199	0xbdf62af4	-0.120199114
200	0x3ea96bae	0.33089966
201	0x3ea8bed7	0.329581
202	0xbee4cc4b	-0.44687113
203	0xbe37f698	-0.17965162
204	0x3db9b983	0.09068587
205	0x3dcf4990	0.10121453
206	0xbef37461	-0.47549728
207	0xbdef2437	-0.11676829
208	0xbc9f7805	-0.01946641
209	0xbeb74dd2	-0.3580156
210	0x3e35761d	0.17720838
211	0x3e6819d0	0.22666097
212	0xbd4430f9	-0.047898266
213	0xbccfa456	-0.025346916
214	0x3ebb516e	0.36585563
215	0xbef90db5	-0.4864327
216	0x3e27fa5c	0.16404098
217	0xbe891b38	-0.2677858
218	0x3e070102	0.13183978
219	0x3f0e0700	0.5547943
220	0xbce5acbd	-0.02803647
221	0xbf479db9	-0.7797504
222	0x3e4ada6e	0.19809887
223	0x3e24ea98	0.16105115
224	0x3d6bfe9a	0.057615854
225	0x3e845846	0.25848597
226	0x3f4734f3	0.7781517
227	0xbde35380	-0.11099911
228	0xbe1c8fab	-0.1528918
229	0x3f031426	0.5120262
230	0xbe902b35	-0.28157964
231	0x3db9187d	0.09037874
232	0x3dc38cc4	0.09548333
233	0x3f4a767a	0.7908703
234	0x3f0e9f91	0.5571223
235	0x3e8e70b6	0.27820367
236	0xbe3f5f6e	-0.18688747
237	0x3db43239	0.08798642
238	0xbecec751	-0.4038644
239	0xbdab6376	-0.0836858
240	0x3f2232b3	0.6335861
241	0x3c9f43b6	0.019441467
242	0xbe7b2b9d	-0.24528356
243	0x3ee27000	0.44226074
244	0x3ea0c2e4	0.3139869
245	0x3e3faa5a	0.18717328
246	0x3e550cc5	0.20805652
247	0x3e1179d9	0.14206637
248	0x3eddeabb	0.43343148
249	0x3fb30952	1.3987219
250	0xbed6edfc	-0.41978443
251	0xbd4fc634	-0.05072613
252	0x3ec0ec72	0.37680393
253	0x3dbaea2d	0.09126697
254	0xbeae7d1f	-0.34079835
255	0xbef5cc25	-0.48007312

fc1.bias f4 [64]
0	0x3cff1c8b	0.03114154
1	0xbe1f3cb2	-0.15550497
2	0x3f14f149	0.5818067
3	0xbda4dfae	-0.08050476
4	0x3da8a58c	0.082347006
5	0xbdae68a2	-0.08516051
6	0x3ec04ec5	0.37560096
7	0xbe63d544	-0.22249323
8	0x3e9ff945	0.31244865
9	0xbd362161	-0.044465426
10	0xbdf86533	-0.12128677
11	0xbebca1c1	-0.36842158
12	0x3ecd187c	0.40057743
13	0xbec7b954	-0.39008582
14	0x3eb3ead2	0.3514009
15	0x3e866e2a	0.26255924
16	0x3f032c8c	0.5123985
17	0x3e6a435a	0.22877255
18	0x3efbf084	0.49206936
19	0x3dc8e6dd	0.09809659
20	0x398cbe0a	0.0002684447
21	0xbe081591	-0.13289477
22	0x3e05e160	0.13074255
23	0x3ecbdcf4	0.3981701
24	0x3cd75415	0.02628521
25	0x3e2b1805	0.16708381
26	0x3b5ddc66	0.0033853292
27	0xbbd8b819	-0.006613743
28	0x3e5d14b0	0.21589923
29	0xbeba2341	-0.36355022
30	0x3d8ba36c	0.068182796
31	0x3ea35667	0.31901857
32	0xbe995f94	-0.29955733
33	0x3efb6de9	0.49107292
34	0x3ef1bf52	0.47216278
35	0x3f1d78a8	0.6151223
36	0x3eecf01f	0.46276948
37	0x3e0b20c2	0.13586715
38	0xbc892f1b	-0.016746094
39	0x3f156e13	0.58371085
40	0x3da66502	0.081247345
41	0xbe41d234	-0.18927842
42	0x3ec18963	0.3780013
43	0x3e2bf502	0.16792682
44	0x3e915e36	0.2839219
45	0xbecffb1b	-0.40621266
46	0x3e6f59a5	0.2337404
47	0x3e1a77b5	0.15084727
48	0xbd09e2e7	-0.033663657
49	0xbd3a77d0	-0.04552442
50	0x3e110d89	0.1416532
51	0x3e9213c7	0.28530714
52	0xbcf94a86	-0.030431043
53	0x3ea3415e	0.3188581
54	0x3f3115d9	0.6917396
55	0x3f06405b	0.5244195
56	0x3eb8e7bb	0.36114296
57	0x3e22d1c4	0.15900332
58	0x3f0f2785	0.55919677
59	0x3e6ab929	0.22922195
60	0xbc6b5349	-0.014363118
61	0x3d877479	0.06614012
62	0xbeb5adf6	-0.35484284
63	0x3ea88bf8	0.32919288

fc2.weight f4 [64, 64]
0	0x3ea4bccc	0.3217529
1	0xbf41d18d	-0.75710374
2	0x3e0e412e	0.13892052
3	0x3d552b09	0.052042995
4	0x3ed2a620	0.41142368
5	0x3ea463b1	0.32107309
6	0x3ed8a990	0.42316866
7	0xbe00bcb6	-0.12571988
8	0xbea1f101	-0.31629184
9	0x3e7f6c1c	0.24943584
10	0xbe511745	-0.20419033
11	0xbdcfcca4	-0.10146454
12	0xbf1bdb94	-0.60881925
13	0xbf860fe6	-1.0473602
14	0x3e881c76	0.26584214
15	0x3eb82c95	0.35971513
16	0x3ea5952b	0.3234037
17	0xbf8dd8bd	-1.1081768
18	0x3f039b55	0.5140889
19	0xbed40b6b	-0.4141496
20	0x3e693038	0.227723
21	0xbe7af901	-0.2450905
22	0x3ead8326	0.3388912
23	0x3e8da86d	0.2766756
24	0x3e8e4518	0.2778709
25	0xbf23135e	-0.63701427
26	0x3e73eb6f	0.2382028
27	0x3eed27c6	0.46319407
28	0x3e831edf	0.2560949
29	0xbdc91392	-0.09818186
30	0xbfb26aa1	-1.393879
31	0x3ec0602e	0.3757338
32	0xbf81b1bc	-1.0132365
33	0x3e6eac8b	0.23308007
34	0x3eb50cd9	0.35361364
35	0x3e5c192b	0.21493976
36	0x3e46e19e	0.19422004
37	0x3e5cc05f	0.21557759
38	0x3d7c72d9	0.061632965
39	0x3e7e58a2	0.24838498
40	0x3e8dcb2f	0.2769408
41	0xbed51ac3	-0.4162198
42	0x3eb82389	0.3596461
43	0x3dba1307	0.090856604
44	0xbf9417cb	-1.1569761
45	0x3c460003	0.012084964
46	0x3e82dd8f	0.2555966
47	0x3ec491e9	0.3839257
48	0x3ecc9517	0.39957497
49	0x3ed7d0f1	0.42151597
50	0x3e118b7c	0.14213365
51	0x3eca8e72	0.39561802
52	0x3e379e03	0.1793137
53	0x3eddd9f1	0.4333034
54	0x3e8359c4	0.25654423
55	0x3e618b3d	0.22025771
56	0x3ed1b08f	0.40955016
57	0x3ecc478f	0.39898345
58	0x3e43470f	0.19070075
59	0xbe998846	-0.2998678
60	0x3ec5c894	0.3862959
61	0xbdd3b488	-0.10337168
62	0xbd85ef10	-0.06539738
63	0xbf9b9f74	-1.2158036
64	0xbb7161f0	-0.0036832057
65	0x3e10be73	0.1413515
66	0xbcff9a81	-0.031201603
67	0xbead0792	-0.33794838
68	0x3d66f7fb	0.056388836
69	0x3e4fefd7	0.20306335
70	0xbda2bf82	-0.079466835
71	0xbe2ab7a2	-0.16671613
72	0xbf0f7b90	-0.56047916
73	0x3de60350	0.112311006
74	0xbea31c52	-0.31857544
75	0x3d03c33c	0.032168612
76	0xbe1831fb	-0.14862816
77	0x3e2396e6	0.15975532
78	0x3df018f7	0.11723512
79	0xbde0cac4	-0.109761745
80	0xbe0803d0	-0.13282704
81	0x3cd21ffb	0.025650015
82	0xbdb34685	-0.08753685
83	0xbc43f579	-0.011960381
84	0x3da8d0f7	0.08242982
85	0xbe307468	-0.17231905
86	0xbd38bba0	-0.04510081
87	0x3dd2dbdb	0.1029584
88	0x3e2c004c	0.16796988
89	0xbeeae3b2	-0.45876843
90	0x3e3fc841	0.18728735
91	0xbe08fde9	-0.13378109
92	0xbd08b4d6	-0.033375584
93	0xbc8d53c0	-0.01725185
94	0x3e66738d	0.22505017
95	0x3d5595d3	0.052144837
96	0x3e8ceb4b	0.27523264
97	0xbe2f729c	-0.17133564
98	0x3e18df59	0.1492895
99	0xbb49691a	-0.0030732811
100	0xbdc97d2d	-0.098383285
101	0x3d42d2d8	0.047564358
102	0x3bef0d7e	0.0072953096
103	0xbd305aa6	-0.0430552
104	0x3e4d8e1c	0.20073742
105	0xbe2194e6	-0.15779456
106	0xbca739a8	-0.020413235
107	0xbe448ca1	-0.1919427
108	0x3e6475e9	0.22310604
109	0xbdf1a938	-0.11799854
110	0x3d29d5fe	0.041463844
111	0xbd55f0ec	-0.052231714
112	0x3da3cd5e	0.07998155
113	0x3d3415c3	0.043966066
114	0xbd1066ba	-0.035254218
115	0xbd79d56d	-0.060994554
116	0x3e213749	0.15743746
117	0x3d03af74	0.032149747
118	0xbeecc9bf	-0.4624767
119	0x3dd03561	0.10166431
120	0xbd9e7f37	-0.07739108
121	0x3e7bfe0f	0.24608634
122	0x3c78f596	0.015195271
123	0xbde4cd77	-0.11172002
124	0xbdf8e569	-0.121531315
125	0xbf027127	-0.50953907
126	0xbdd98b44	-0.10622266
127	0x3dcc9dec	0.09991059
128	0xbd92bf96	-0.07165448
129	0x3c90739e	0.017633256
130	0xbc3eda46	-0.01164872
131	0xbddae736	-0.10688631
132	0x3cd19d3b	0.025587669
133	0x3da9cfea	0.082916096
134	0x3cf91589	0.030405777
135	0xbd922926	-0.07136755
136	0x3d4222a6	0.047396325
137	0xbd13c644	-0.036077753
138	0xbd61e6ad	-0.05515163
139	0xbdbc49a0	-0.0919373
140	0xbdaec818	-0.085342586
141	0xbbd5938f	-0.0065178345
142	0xbca235c5	-0.01980103
143	0xbc9817d2	-0.018566046
144	0xbc0cf4b1	-0.008603261
145	0xbdbb4e7c	-0.09145829
146	0xbe150aed	-0.14554949
147	0x3c24d7ee	0.010061247
148	0xbe006b93	-0.12541036
149	0xbd945d2a	-0.07244332
150	0xbd9280d3	-0.071534775
151	0xbc9c2951	-0.01906267
152	0xbdc4417c	-0.09582803
153	0x3ae640fa	0.0017566972
154	0xbe0bfd30	-0.13670802
155	0xbe0556fd	-0.13021465
156	0x3dba3627	0.0909236
157	0xbb961fc0	-0.0045814216
158	0x3d11339e	0.035449617
159	0xbd465666	-0.04842224
160	0x3d16847c	0.03674744
161	0x3d2264bd	0.039646853
162	0xbcc41ffa	-0.023941029
163	0xbdd190d0	-0.10232699
164	0xbdbdd08a	-0.09268291
165	0x3caad19c	0.020851903
166	0xbd4b1205	-0.04957773
167	0x3c612b8c	0.013743293
168	0xbc6e6234	-0.014549781
169	0x3960ede8	0.00021450932
170	0x3d10e3be	0.035373442
171	0xbe013e9d	-0.12621541
172	0xbd92478b	-0.07142552
173	0xbdef5c8c	-0.11687574
174	0x3d34c28f	0.044130858
175	0x3d95bd80	0.07311535
176	0xbdc31549	-0.09525544
177	0x3ca1cd3e	0.019751187
178	0xbc9a6ecc	-0.01885166
179	0xbdc66cf7	-0.09688752
180	0xbd317fc8	-0.043334752
181	0xbd437deb	-0.047727507
182	0xbc934a52	-0.017979775
183	0xbda323cd	-0.07965813
184	0xbdcb0a35	-0.09914056
185	0x3daa9efd	0.08331106
186	0xbe163efb	-0.14672463
187	0x3b2901fd	0.0025788539
188	0x3d663f2c	0.05621259
189	0x3d96329c	0.07333872
190	0xbd83c5a4	-0.06434181
191	0x3da57248	0.08078438
192	0x3e9a9a91	0.3019605
193	0xbee4523a	-0.44593984
194	0x3e9c271b	0.30498585
195	0x3e849d95	0.25901476
196	0x3e98bf2b	0.2983335
197	0x3e665d63	0.22496562
198	0x3e8a30f8	0.26990485
199	0xbe3dac7e	-0.18522832
200	0xbe62b66a	-0.22139898
201	0x3e21f4c2	0.15816024
202	0xbebc4238	-0.3676927
203	0xbdf8fbfa	-0.12157436
204	0xbf1af187	-0.6052479
205	0xbebd95a3	-0.37028226
206	0x3eb349a7	0.3501713
207	0x3ec7e451	0.3904138
208	0x3ea35917	0.31903908
209	0xbf87a17b	-1.0596155
210	0x3ef1ef4f	0.4725289
211	0x3da0ca2a	0.0785106
212	0x3eacb97c	0.33735263
213	0xbf084e3e	-0.5324439
214	0x3e92eca1	0.2869616
215	0x3e67a455	0.22621281
216	0x3ece48e1	0.40289977
217	0xbebc0295	-0.3672072
218	0x3e7f5246	0.24933729
219	0x3eac9c10	0.33712816
220	0x3ec663cb	0.3874801
221	0x3c8de8e0	0.017322958
222	0xbee66bd0	-0.4500413
223	0x3edd33ed	0.4320368
224	0xbf770f26	-0.9650749
225	0x3ecf9a27	0.40547296
226	0x3e91bb0b	0.28463015
227	0x3e95313d	0.29139128
228	0x3dff6de6	0.12472133
229	0x3eb19f4d	0.3469185
230	0x3df18640	0.11793184
231	0x3e8efdae	0.27927917
232	0x3ef22a97	0.47298118
233	0xbe841032	-0.25793606
234	0x3eb42452	0.3518396
235	0x3e8e52bd	0.277975
236	0xbf60d9c1	-0.87832266
237	0xbd1b6d51	-0.03794605
238	0x3d75244d	0.059849072
239	0x3f0c03d0	0.5469332
240	0x3e793cc9	0.24339594
241	0x3e9dd304	0.30825055
242	0x3e5cbd73	0.21556644
243	0x3e440813	0.19143705
244	0x3e5ef3f2	0.21772745
245	0x3e989617	0.2980201
246	0x3e99c487	0.3003275
247	0x3e585426	0.2112585
248	0x3e94b8ab	0.2904714
249	0x3ea808ff	0.32819363
250	0x3eb5647f	0.35428235
251	0xbf051d76	-0.5199808
252	0x3f1060c9	0.5639768
253	0xbeb69b40	-0.3566532
254	0xbe020708	-0.12697995
255	0xbf3fd22d	-0.7493008

fc2.bias f4 [64]
0	0x3ea7eebb	0.32799324
1	0xbe4f58be	-0.20248696
2	0xbc5c6804	-0.013452534
3	0x3eb919e9	0.3615258
4	0xbd31e54a	-0.043431558
5	0x3d17b03d	0.03703331
6	0x3ceb99bb	0.028759828
7	0x3e3ddf97	0.18542324
8	0x3e1e9a93	0.15488653
9	0x3e7aa203	0.24475865
10	0xbd1b24ac	-0.03787677
11	0xbddbecdf	-0.10738539
12	0xbe34a402	-0.17640689
13	0x3e968c36	0.29403847
14	0x3e33ba44	0.17551523
15	0x3e14f34f	0.1454594
16	0x3d09a119	0.0336009
17	0xbde0a67b	-0.10969254
18	0x3d51a2fd	0.05118083
19	0x3d20f507	0.039296176
20	0x3dab1df2	0.08355321
21	0xbe04ae87	-0.12957202
22	0x3ebf6690	0.37382936
23	0x3e6339af	0.22189973
24	0x3e8ecf0f	0.27892348
25	0x3e4b1eea	0.19836012
26	0x3eae86bc	0.3408717
27	0x3e3d08d0	0.18460393
28	0x3d18c4f4	0.037297204
29	0x3d7c4f23	0.06159891
30	0xbde147c2	-0.11000015
31	0x3ebea911	0.37238362
32	0x3d6c6f15	0.057723124
33	0x3e453fbb	0.19262592
34	0xbbf31660	-0.007418439
35	0x3e19d709	0.15023436
36	0x3e694165	0.22778852
37	0xbd7a3336	-0.061083995
38	0x3ec359bf	0.38154408
39	0x3ea4462d	0.3208479
40	0x3e2c9f1a	0.16857567
41	0x3d962a54	0.07332292
42	0x3e5006e2	0.20315126
43	0x3d35bf6e	0.044372015
44	0x3e9000c4	0.28125584
45	0x3e0194a6	0.12654361
46	0x3db81e29	0.089901276
47	0x3e255f32	0.16149595
48	0x3e9d1083	0.3067666
49	0x3e6c44b2	0.2307308
50	0xbe2b7ade	-0.16746089
51	0x3e8e724a	0.2782157
52	0x3e1be393	0.15223531
53	0xbdc53c8b	-0.09630688
54	0x3a26aa39	0.00063577626
55	0x3c864bab	0.016393503
56	0xbdb2ef58	-0.087370574
57	0xbda55957	-0.08073681
58	0xbd12733a	-0.03575442
59	0xbd0cd893	-0.03438623
60	0x3e5dd4ce	0.2166321
61	0x3e5d6d81	0.21623804
62	0xbdab7908	-0.08372694
63	0x3e10c901	0.14139177

fc3.weight f4 [5, 64]
0	0x3ee548bd	0.44782057
1	0xbe8a98c1	-0.27069667
2	0xbdb01e9c	-0.08599588
3	0x3eb15614	0.34635985
4	0x3d17aa30	0.037027538
5	0xbec8591a	-0.3913048
6	0xbd6b6fbc	-0.057479605
7	0x3f332312	0.6997539
8	0x3ee79537	0.4523103
9	0x3e8166ee	0.25273842
10	0xbdc340ee	-0.09533869
11	0xbd523064	-0.05131568
12	0x3ce20b21	0.027593197
13	0x3e9a3eaf	0.3012595
14	0x3e9be744	0.3044988
15	0x3f28a587	0.65877575
16	0x3f11ae24	0.5690634
17	0x3d1a82f3	0.03772254
18	0x3f2f7c88	0.68549395
19	0x3f0bf551	0.546712
20	0xbdc6eae8	-0.097127736
21	0xbf47cfe4	-0.7805159
22	0xbfa4a137	-1.2861699
23	0x3eb4f8bc	0.3534602
24	0x3eb68366	0.35647124
25	0x3e7b812f	0.24560998
26	0x3eb29a1f	0.3488321
27	0xbeabedfa	-0.3358
28	0x3f8fee3f	1.1244582
29	0x3f1e4468	0.6182313
30	0xbdbf00a8	-0.09326297
31	0x3ebc476f	0.3677325
32	0x3e196b74	0.14982396
33	0xbee2413c	-0.44190395
34	0xbd1402d4	-0.03613551
35	0x3ec854c6	0.39127177
36	0x3f30b2c6	0.69022787
37	0x3e040b8e	0.12895033
38	0xbfa81017	-1.312991
39	0x3f419b5a	0.7562767
40	0x3f0b095d	0.5431116
41	0x3ce22941	0.027607562
42	0x3f1dfef1	0.61717135
43	0x3f216ada	0.6305367
44	0x3e926b9b	0.2859772
45	0x3ee8e601	0.4548798
46	0xbe7d9d8e	-0.24767134
47	0x3f9d8bff	1.2308348
48	0x3e83c631	0.25737146
49	0x3eeb8615	0.46000734
50	0xbe8bd248	-0.2730887
51	0x3ebc1492	0.36734444
52	0xbe2c7101	-0.16839983
53	0xbd8a92c2	-0.06766273
54	0x3dbf5297	0.09341925
55	0x3db28b45	0.0871797
56	0xbccd021b	-0.025025418
57	0xbf18623e	-0.59524906
58	0xbf40c856	-0.7530569
59	0xbf174a0e	-0.59097373
60	0x3ee56d1f	0.44809815
61	0xbed1fdc7	-0.4101393
62	0x3dc16df8	0.09444803
63	0x3eca571a	0.39519578
64	0x3ef81bd8	0.48458743
65	0xbeb59711	-0.35466817
66	0xbdc6cf5e	-0.09707521
67	0x3e2c0d44	0.16801935
68	0xbda4441d	-0.08020804
69	0xbdcb1434	-0.09915963
70	0xbd2c4ad9	-0.042063568
71	0x3eb6ef79	0.35729578
72	0x3ece3721	0.40276435
73	0x3ee35672	0.4440189
74	0x3de33936	0.110948965
75	0xbd9c5868	-0.0763405
76	0xbdce4d9f	-0.10073399
77	0x3f1feadf	0.6246776
78	0x3f26e559	0.65193707
79	0x3f19ec16	0.60125864
80	0x3eeb2f14	0.45934355
81	0x3df66eb2	0.12032832
82	0x3f352d27	0.7077202
83	0x3f27fba1	0.6561833
84	0xbd5bd979	-0.053674195
85	0xbed1caa0	-0.40974903
86	0xbf9954c8	-1.1978998
87	0x3e34a8c2	0.17642501
88	0xbe82f40a	-0.25576812
89	0xbea2f70d	-0.3182911
90	0x3e74c96a	0.23904958
91	0xbe20f9a8	-0.15720236
92	0x3f296aff	0.6617889
93	0x3eb688e3	0.3565131
94	0xbdd6cc0e	-0.10488139
95	0x3e50de1e	0.20397231
96	0x3ecb3f43	0.39696702
97	0xbf186fbd	-0.595455
98	0xbd1592cc	-0.03651695
99	0x3e214e0d	0.1575243
100	0x3ef15e55	0.47142282
101	0xbdbf1ece	-0.093320474
102	0xbfa2d55a	-1.272136
103	0x3e850894	0.25983107
104	0x3eba05cf	0.36332557
105	0x3c91e80f	0.01781085
106	0x3f190e44	0.5978739
107	0x3f0a058a	0.539147
108	0x3efacaae	0.48982757
109	0x3ecdcd2c	0.40195596
110	0xbeb4b5f2	-0.35295063
111	0x3ea9ee63	0.33189687
112	0x3f01c873	0.50696486
113	0x3f0041dd	0.501005
114	0xbf000319	-0.50004727
115	0x3eb25749	0.34832218
116	0x3f11e42c	0.5698879
117	0xbd92c7f2	-0.07167043
118	0x3cd17c42	0.025571946
119	0x3cbab309	0.022790449
120	0x3ddd8154	0.10815683
121	0xbeb77981	-0.35834888
122	0xbe60a16f	-0.21936582
123	0xbe59f975	-0.21286567
124	0x3f2f3616	0.68441904
125	0xbe3cab74	-0.18424779
126	0x3d9952ec	0.07486519
127	0x3e96f18e	0.29481167
128	0x3ed434cb	0.41446528
129	0xbe2308ec	-0.15921372
130	0x3dcff20a	0.10153587
131	0x3e88f642	0.2675038
132	0xbd90682b	-0.070511185
133	0xbe09e3c8	-0.13465798
134	0x3dcaad64	0.09896353
135	0xbe569a0b	-0.209572
136	0xbee9d15e	-0.45667547
137	0x3f308baf	0.6896314
138	0x3df7a074	0.12091151
139	0x3d81efd8	0.06344575
140	0xbd827335	-0.0636963
141	0x3f397913	0.7245037
142	0x3e924e59	0.285754
143	0x3f245b9a	0.6420227
144	0x3e730211	0.23731257
145	0xbdcc9440	-0.09989214
146	0x3f811400	1.0084229
147	0x3f55d7de	0.8353251
148	0xbb6a4940	-0.0035749227
149	0xbe2b3700	-0.167202
150	0xbfb5695b	-1.4172777
151	0x3eb81d9d	0.35960093
152	0x3e437000	0.19085693
153	0x3c8ae379	0.01695417
154	0x3ee3806d	0.4443392
155	0xbec0f58a	-0.3768733
156	0x3f16e1e4	0.5893843
157	0x3e24f9b5	0.1611088
158	0xbd6d76dc	-0.05797468
159	0x3ef5c6c8	0.4800322
160	0xbea56d1f	-0.32309815
161	0xbf4a9f48	-0.79149294
162	0xbcda2df8	-0.026633248
163	0x3e4cc8e5	0.1999851
164	0x3ec41ba3	0.38302335
165	0x3e108573	0.14113407
166	0xbfc70d0e	-1.5550859
167	0x3ddedf43	0.108824275
168	0x3e9bfb8e	0.30465358
169	0xbdc49246	-0.09598212
170	0xbdb1ef49	-0.08688218
171	0x3f5a7270	0.8533087
172	0x3e4261f3	0.18982677
173	0x3f3a1102	0.726822
174	0xbe2a675d	-0.16640992
175	0x3d2a3c1d	0.041561235
176	0x3f00062f	0.50009435
177	0x3edf3088	0.43591714
178	0xbedb9534	-0.4288727
179	0x3eef7821	0.4677134
180	0x3d5c454c	0.053777024
181	0x3dae328a	0.08505733
182	0x3c203d87	0.009780294
183	0x3dc248be	0.09486531
184	0x3d25f874	0.040520146
185	0xbdccf0eb	-0.10006889
186	0xbe6157d0	-0.22006154
187	0xbe092cc9	-0.1339599
188	0x3f6f144b	0.9339034
189	0xbe8d1db6	-0.2756173
190	0xbd94fe76	-0.07275097
191	0x3ec6d2f6	0.38832825
192	0x3f20c0bf	0.6279411
193	0xbe2bd1a6	-0.16779193
194	0x3c65df3f	0.014030277
195	0x3e72261d	0.23647352
196	0xbcee85bc	-0.029116504
197	0x3e946fe0	0.28991604
198	0xbcaa5ac4	-0.020795234
199	0x3f401926	0.75038373
200	0x3f5ba027	0.8579125
201	0x3f339154	0.7014363
202	0xbcf42a88	-0.029805437
203	0xbc599309	-0.013279685
204	0xbd46816e	-0.048463278
205	0x3f2964f3	0.6616966
206	0x3e7b62d2	0.24549416
207	0x3eef069a	0.46684724
208	0x3f126aea	0.5719439
209	0x3d8e9bee	0.06963335
210	0x3eee4aed	0.4654154
211	0x3eeda4e9	0.4641488
212	0x3dcb487c	0.09925935
213	0xbf1bc38c	-0.60845256
214	0xbfa5b9cc	-1.2947326
215	0x3e0bacb8	0.13640106
216	0xbcf3c3eb	-0.029756507
217	0xbebd5f77	-0.36986896
218	0x3e481be6	0.19541892
219	0xbf0fd979	-0.5619121
220	0x3f03380e	0.5125741
221	0x3f3fc045	0.74902755
222	0xbd5c98d8	-0.0538567
223	0x3e98533a	0.29750997
224	0x3f2383f6	0.6387323
225	0xbed1ef8e	-0.41003078
226	0xbdb8ed84	-0.090296775
227	0x3ec7090b	0.38874087
228	0x3f25dbba	0.647884
229	0xbdbab3a7	-0.09116297
230	0xbf9b89ab	-1.2151388
231	0x3ef6835c	0.48147094
232	0x3efee1ef	0.4978175
233	0x3d8ca2cc	0.068669885
234	0x3f2c3881	0.6727372
235	0x3ef00483	0.46878442
236	0x3effc950	0.49958277
237	0x3ecc6636	0.3992173
238	0xbf09146f	-0.53546804
239	0x3e35149e	0.17683646
240	0x3f35edd9	0.7106605
241	0x3ee60130	0.4492278
242	0xbf40f1d8	-0.75369024
243	0x3dc75063	0.097321294
244	0x3f55e369	0.83550125
245	0xbd99b5cb	-0.075053774
246	0xb972537d	-0.0002311002
247	0x3d10d264	0.035356894
248	0x3d7b4250	0.061342537
249	0xbdef535a	-0.1168582
250	0xbcdde762	-0.027087871
251	0xbe866a2f	-0.26252887
252	0xbe3d3879	-0.18478574
253	0xbeee181d	-0.46502772
254	0x3c811f3f	0.01576197
255	0x3e4c5062	0.19952539

fc3.bias f4 [5]
0	0x3ea8c119	0.32959822
1	0xbe218dfd	-0.1577682
2	0xbdb2a2cb	-0.087224565
3	0x3cbbb3d1	0.022912892
4	0x3c864b41	0.016393306
