policy_dqn.pth (torch, 23093 bytes, 6 tensors)

fc1.weight f4 [64, 7]
0	0xbeb78a0a	-0.35847503
1	0x3ebf2026	0.37329215
2	0x3f85f12d	1.0464226
3	0xbf6afa9f	-0.9178867
4	0x3d7e0203	0.062013637
5	0x3e6e34d9	0.23262347
6	0xbde4f4d3	-0.11179509
7	0x3e19a736	0.15005192
8	0x3ec30e33	0.3809677
9	0x3fa06cdd	1.2533222
10	0x3e3a0b94	0.18168479
11	0x3efaaaec	0.48958528
12	0x3e795a73	0.2435091
13	0xbe0ee94e	-0.13956186
14	0x3eb09063	0.34485158
15	0x3f1abb00	0.6044159
16	0x3fa26c1a	1.268924
17	0xbc4968be	-0.012293039
18	0x3e4b5ce2	0.1985965
19	0xbed13b5d	-0.40865603
20	0x3e3d1ff6	0.18469223
21	0x3ef421ee	0.47682136
22	0xbcc9c042	-0.024627808
23	0xbf1e96da	-0.6194893
24	0x3f0a6263	0.54056376
25	0xbf5cdc13	-0.86273307
26	0x3dd4609c	0.10369989
27	0x3df668f0	0.12031734
28	0x3e6e1acd	0.23252411
29	0x3e886b47	0.26644346
30	0x3f492484	0.78571343
31	0xbe675d13	-0.22594099
32	0xbdf736e7	-0.12071019
33	0xbdc1348d	-0.094338514
34	0x3f83da00	1.0300903
35	0xbd6b4943	-0.057442915
36	0xbd7d2890	-0.06180626
37	0xbfae4e9b	-1.3617738
38	0x3f5dc134	0.8662293
39	0x3f512c8d	0.81708604
40	0x3c237b59	0.009978139
41	0xbe47aa6f	-0.19498609
42	0x3eb5d5cd	0.3551468
43	0x3f12e2b5	0.5737718
44	0x3f99cf55	1.2016398
45	0xbec3239d	-0.38113108
46	0xbeb904be	-0.3613643
47	0x3e9f94b5	0.31168142
48	0x3d54473b	0.051825743
49	0x3e53f234	0.20697862
50	0x3e91d90f	0.28485915
51	0x3f7ba7a6	0.98302686
52	0xbf230588	-0.63680315
53	0x3ea18d26	0.31553
54	0x3b1416b7	0.0022596547
55	0x3ce77eff	0.028258799
56	0xbe212720	-0.15737581
57	0x3e22b240	0.1588831
58	0x3ecc60b6	0.39917535
59	0xbfb48d2e	-1.4105585
60	0xbf58ab49	-0.8463636
61	0xbc861d81	-0.01637149
62	0x3d82753b	0.06370016
63	0xbdded76d	-0.10880933
64	0x3e0575a5	0.13033159
65	0xbf3eba0e	-0.74502647
66	0xbfe2ad04	-1.770905
67	0x3e41694d	0.18887825
68	0xba3a0a20	-0.00070968457
69	0xbd86db70	-0.06584823
70	0xbec469f0	-0.38362074
71	0x3ea3d65a	0.31999475
72	0x3f4b55f6	0.7942804
73	0x3f8e1ff8	1.1103506
74	0xbeeb7b83	-0.4599267
75	0x3d27e4ac	0.040989563
76	0x3d65eff1	0.05613703
77	0x3e53be56	0.20678076
78	0x3b2f7d69	0.002677763
79	0x3ef2bae3	0.47408208
80	0xbe6bc6e6	-0.23025092
81	0x3ef124da	0.47098428
82	0xbe43a151	-0.19104506
83	0xbea3632a	-0.31911594
84	0x3e897b11	0.26851705
85	0x3eae68c4	0.34064305
86	0x3f8484a4	1.0352979
87	0x3e1d4653	0.15358858
88	0x3e934c0a	0.2876895
89	0x3c9f7519	0.019465016
90	0x3e034b5c	0.12821716
91	0xbd929b97	-0.07158583
92	0xbd91bd4e	-0.07116185
93	0x3f8ad77e	1.0847013
94	0xbe0104ec	-0.12599534
95	0x3ef02ce6	0.46909255
96	0xbdba4440	-0.09095049
97	0xbe86c2c2	-0.26320463
98	0x3f12ae3c	0.5729711
99	0x3f1bf6b7	0.6092333
100	0x3e9c049b	0.30472264
101	0xbd33a501	-0.04385853
102	0xbe68bbbb	-0.22727863
103	0x3e342d67	0.17595445
104	0xbdf86835	-0.12129251
105	0x3e6ca1cd	0.23108597
106	0x3da4f915	0.08055321
107	0x3fbec6e0	1.4904442
108	0xbe4c5cba	-0.19957247
109	0x3e4040a2	0.18774655
110	0xbe2522d6	-0.1612657
111	0x3d3db545	0.04631545
112	0xbea51e4a	-0.3224967
113	0x3d1cf370	0.038318098
114	0x3ebf7394	0.37392867
115	0x3f11108e	0.56665885
116	0x3e511830	0.20419383
117	0xbdf40275	-0.11914531
118	0x3f5cff5d	0.86327153
119	0xbe1bccee	-0.15214893
120	0x3ee5cbd6	0.44882077
121	0x3f482a37	0.78189415
122	0xbf198ad1	-0.5997744
123	0x3eb92955	0.36164346
124	0x3ee93692	0.45549446
125	0xbe3c56e4	-0.18392521
126	0xbe639b11	-0.22227122
127	0x3e98a3d4	0.2981249
128	0x3e49419d	0.19653936
129	0x3fad4ee1	1.3539697
130	0x3f351748	0.7073865
131	0x3db346a8	0.08753711
132	0x3e0af930	0.1357162
133	0x3dd0038b	0.10156926
134	0x3eea2b8f	0.45736358
135	0xbe8f4ecc	-0.27989805
136	0xbf0dd0ba	-0.55396616
137	0xbee8b8a0	-0.45453358
138	0x3ef63319	0.4808586
139	0xbecf7579	-0.40519312
140	0xbd4339e7	-0.04766264
141	0x3daf4d2e	0.08559643
142	0x3bf85580	0.007578552
143	0xbdaa0963	-0.083025716
144	0x3e223b8a	0.15843025
145	0x3ef1fa30	0.4726119
146	0x3f253351	0.6453143
147	0x3dfff436	0.124977514
148	0x3e91f566	0.28507537
149	0x3f033670	0.5125494
150	0xbda2b63d	-0.079449154
151	0xbf8092fc	-1.0044856
152	0xbe1a68f1	-0.15079094
153	0x3e888fc8	0.26672196
154	0x3efd0f06	0.49425524
155	0xbcd90486	-0.026491415
156	0x3e432b6f	0.19059537
157	0x3e8b5e85	0.2722055
158	0xbe23d68b	-0.1599981
159	0x3dc81476	0.097695276
160	0x3f3f188b	0.74646825
161	0x3ebe971f	0.3722467
162	0xbf29f671	-0.66391665
163	0xc015d060	-2.3408432
164	0xbd572f1d	-0.052535165
165	0xbe392cf4	-0.18083555
166	0x3eb54b00	0.35408783
167	0xbe7c60a0	-0.24646235
168	0xbf26bf4b	-0.6513564
169	0x3ec2c7c3	0.3804303
170	0x3fa1b392	1.2632926
171	0xbea9437c	-0.330593
172	0xbe5d90c3	-0.21637253
173	0x3e4fcf2c	0.20293874
174	0xbdcedcd7	-0.101007156
175	0x3e4a75a3	0.19771437
176	0x3e95c448	0.29251313
177	0x3ebc38a6	0.3676197
178	0xbd90fb68	-0.07079202
179	0xbd826c04	-0.063682586
180	0x3edec5c5	0.4351026
181	0xbeae4b35	-0.34041753
182	0x3e9ac375	0.30227247
183	0x3e5dcdf6	0.21660599
184	0x3ef3a722	0.4758845
185	0x3eca2855	0.39483896
186	0x3e401234	0.18756944
187	0xbeb41d58	-0.35178638
188	0xbedf1954	-0.4357401
189	0x3ee7b1ee	0.45252937
190	0xbdfb1421	-0.12259699
191	0x3e1c8468	0.15284884
192	0x3de743b8	0.11292213
193	0x3eaae2ab	0.3337606
194	0x3e2e5a46	0.17026624
195	0xbd896502	-0.06708719
196	0x3e035fba	0.12829486
197	0x3f1963b0	0.59917736
198	0x3ef0c944	0.47028553
199	0xbd4b6bf4	-0.0496635
200	0x3e277a0e	0.16355154
201	0xbdec7aa8	-0.11546832
202	0xbeb91d03	-0.36154947
203	0x3df807f4	0.12110892
204	0x3e574d5a	0.21025601
205	0xbf36063d	-0.7110327
206	0xbe5c53d9	-0.2151636
207	0x3d9ef75a	0.07762022
208	0x3f123b64	0.5712187
209	0xbf047761	-0.5174466
210	0xbce5921c	-0.028023772
211	0x3f182a1c	0.59439254
212	0x3f0f2230	0.5591154
213	0xbebfd6c0	-0.3746853
214	0x3eb971e5	0.36219707
215	0xbda3edc5	-0.08004335
216	0x3e65c530	0.22438502
217	0x3f2ce40d	0.6753548
218	0xbe47b87e	-0.19503972
219	0xbf82788b	-1.0193037
220	0xbfa61e8b	-1.2978071
221	0xbe0d194a	-0.13779178
222	0xbd7ace43	-0.061231863
223	0x39f66f70	0.00047003804
224	0xbf1d4444	-0.6143229
225	0x3e98e6a7	0.29863474
226	0x3f6cf072	0.9255439
227	0xbd4f9d12	-0.050686903
228	0xbeb1f006	-0.34753436
229	0x3e70974b	0.23495214
230	0x3e197e3a	0.14989558
231	0x3ea603a0	0.3242464
232	0xbe6d245f	-0.23158406
233	0xbecc1593	-0.3986021
234	0x3fb8a8ed	1.4426552
235	0xbdc781ac	-0.0974153
236	0x3dba6bd5	0.091025986
237	0x3e0389a6	0.12845477
238	0x3f0e176e	0.555045
239	0x3e4cf44b	0.20015065
240	0x3f4d39b4	0.80166173
241	0xbe34cd99	-0.17656554
242	0x3e9c3fcf	0.30517432
243	0xbea945df	-0.3306112
244	0xbece0131	-0.40235284
245	0x3f19903e	0.5998572
246	0x3eb1b5c1	0.3470898
247	0x3f92cc21	1.1468545
248	0xbe60c0f2	-0.21948603
249	0x3e444e0b	0.19170396
250	0x3e6c7c1a	0.23094216
251	0xbe5f9442	-0.218339
252	0x3e0e8a7f	0.1392002
253	0x3bc8b59d	0.0061251656
254	0xbf50aca9	-0.8151346
255	0x3f3a8eb8	0.7287402

fc1.bias f4 [64]
0	0xbde13306	-0.1099606
1	0x3f24757c	0.64241767
2	0x3f26c435	0.6514314
3	0x3ea10d8b	0.31455645
4	0xbd34bab0	-0.04412335
5	0x3dacc07c	0.08435151
6	0x3f05b887	0.5223469
7	0x3f04d434	0.51886296
8	0x3da3e56c	0.08002743
9	0x3e438a9f	0.19095849
10	0x3e32f22d	0.17475195
11	0x3ea7c765	0.32769313
12	0x3ef6cdd8	0.4820392
13	0x3ede4a40	0.43416023
14	0x3f08a7d8	0.5338111
15	0x3f23d09c	0.6399019
16	0x3e773fcd	0.24145432
17	0xbd43f2e5	-0.047839064
18	0xbddcce5d	-0.10781548
19	0xbe14c2c7	-0.14527427
20	0xbdb3c585	-0.08777908
21	0xbbbd25b2	-0.005772316
22	0xbde2fe65	-0.11083678
23	0x3e2c9bfb	0.16856377
24	0x3df08f44	0.11746076
25	0xbd95d4f4	-0.07316008
26	0x3e7b784c	0.24557608
27	0x3eab144c	0.33413923
28	0x3ec4c987	0.38435003
29	0xbdb273ba	-0.08713479
30	0x3e890bae	0.26766723
31	0x3d4ab324	0.049487248
32	0xbef3550e	-0.4752583
33	0x3d0f5605	0.034994144
34	0x3dd906da	0.1059701
35	0x3ee39b55	0.44454446
36	0x3ed5adee	0.4173426
37	0x3eab1360	0.3341322
38	0xbe1a88de	-0.15091273
39	0xbeaae94c	-0.33381116
40	0x3d7d8349	0.06189278
41	0xbe0d2ada	-0.13785878
42	0xbd9b960d	-0.07596979
43	0x3e68357f	0.22676657
44	0x3efc67da	0.49297982
45	0x3f086454	0.5327809
46	0xbdbb461d	-0.091442324
47	0xbdb6fd97	-0.08935087
48	0x3ef83e4a	0.48485023
49	0x3ed6d500	0.4195938
50	0xbea6497d	-0.32477942
51	0x3eac25b8	0.33622527
52	0xbdcde12a	-0.10052712
53	0x3e05fc62	0.13084558
54	0xbd4b72e6	-0.049670123
55	0x3e837684	0.25676358
56	0x3dd9f556	0.10642497
57	0xbe24df3e	-0.16100785
58	0xbe090892	-0.13382176
59	0x3da450e4	0.08023241
60	0xbe41672c	-0.18887013
61	0x3e321bb8	0.17393386
62	0xbe299e9d	-0.16564412
63	0x3e2c489d	0.16824575

fc2.weight f4 [64, 64]
0	0xbd1d8806	-0.0384598
1	0xbe071518	-0.1319164
2	0xbdea46d9	-0.11439294
3	0xbe0fdd99	-0.14049377
4	0xbdbfcf38	-0.09365696
5	0xbdc63544	-0.09678128
6	0xbd06aa20	-0.032877088
7	0x3dc00155	0.09375254
8	0xbcfd2a44	-0.030903943
9	0xbd58f604	-0.052968994
10	0x3d225d6f	0.039639886
11	0xbdc773d2	-0.09738888
12	0xbc86d566	-0.016459178
13	0x3db65a36	0.08903925
14	0xbd3bd85f	-0.045860644
15	0xbe0aacbf	-0.1354246
16	0xbd5554af	-0.052082714
17	0xbd9d1cca	-0.07671507
18	0xbd4bd75d	-0.049765933
19	0xbddacc82	-0.10683538
20	0x3b9402a0	0.0045169145
21	0x3dadb117	0.08481043
22	0xbd1fdcf8	-0.03902909
23	0xbdfe47cc	-0.12416038
24	0xbd7aa6b4	-0.061194137
25	0x3d7720bc	0.060333952
26	0x3bcef720	0.0063160807
27	0x3d1601f4	0.036622956
28	0xbce4462b	-0.02786549
29	0x3be63c00	0.0070261955
30	0xbc0166df	-0.007898062
31	0x3d449f4a	0.048003472
32	0x3db3a959	0.08772535
33	0x3de1e6cc	0.11030349
34	0x3c991750	0.018687874
35	0x3d85acbd	0.06527088
36	0xbde2190c	-0.110399336
37	0xbdf66bd3	-0.120322846
38	0xbd40dd2c	-0.047085926
39	0x3cb54390	0.022126943
40	0x3d480d50	0.04884082
41	0xbafa8e00	-0.0019115806
42	0x3d13659c	0.035985574
43	0x3d826d64	0.06368521
44	0xbe04c282	-0.12964824
45	0xbd27a21c	-0.040926084
46	0xbd8a1d2b	-0.067438446
47	0x3d21d0f8	0.03950593
48	0xbd32fd4d	-0.043698598
49	0xbde5d770	-0.11222732
50	0x3dcbebd9	0.09957094
51	0x3d44ec04	0.048076645
52	0xbd18177b	-0.037131768
53	0xbdc77e70	-0.09740913
54	0x3d65f973	0.056146096
55	0x3cdc6678	0.02690433
56	0xbb9ef600	-0.004851103
57	0xbdb388e4	-0.08766344
58	0x3d2422dc	0.040072307
59	0xbca9a388	-0.02070786
60	0x3bb7cfcc	0.005609488
61	0x3b0a17f1	0.00210714
62	0xbdf7eb5f	-0.1210544
63	0xbcd54038	-0.026031598
64	0xbc88a108	-0.016678348
65	0xbc06aea4	-0.0082203485
66	0xbcd100e3	-0.025513118
67	0xbddad271	-0.1068467
68	0x3c58d940	0.01323539
69	0xbdbba3c4	-0.09162095
70	0xba97fe07	-0.0011596092
71	0xbd02c52e	-0.031926326
72	0xbdde1098	-0.10843009
73	0xbdc60b14	-0.09670082
74	0xbded7764	-0.115950376
75	0x3d942aa4	0.072346956
76	0x3d303fd9	0.04302964
77	0x3d6c26e4	0.057654276
78	0xbc09fe93	-0.008422512
79	0xbce8c271	-0.02841303
80	0xbd8ccde5	-0.06875209
81	0xbdb586dc	-0.08863613
82	0x3d9049e8	0.070453465
83	0x3c2c26c0	0.010507286
84	0x3dcc80c4	0.099854976
85	0xbd3d1307	-0.046160724
86	0xbdc02d98	-0.09383696
87	0x3dabc1ab	0.083865486
88	0xbdd52f1e	-0.104093775
89	0xbc8ea1c0	-0.017411113
90	0xba9fb718	-0.0012185303
91	0xbcd076c9	-0.025447266
92	0xbdde6d9d	-0.10860751
93	0xbdc23ca8	-0.094842255
94	0xbccacba1	-0.024755301
95	0xbdef98d0	-0.116990685
96	0xbd28ddd4	-0.041227177
97	0x3d842ea9	0.06454212
98	0x3d3e1181	0.04640341
99	0xbdca4f00	-0.09878349
100	0xbce9de08	-0.028548256
101	0xbe05e43b	-0.13075344
102	0x3cd08bd0	0.025457293
103	0xbcb27dd3	-0.021788513
104	0xbddecab8	-0.10878509
105	0xbdd8c92c	-0.105852455
106	0xbd356fb7	-0.044295993
107	0x3cee062c	0.029055677
108	0xbde4d2e1	-0.111730345
109	0xbd4d4f8d	-0.050124694
110	0xbdb96a90	-0.09053528
111	0x3cc63d3e	0.024199124
112	0xbdedc92a	-0.116106346
113	0x3c432842	0.011911454
114	0x3dccf5e6	0.10007839
115	0xbde7565a	-0.11295767
116	0x3d506975	0.05088182
117	0x3d9f4136	0.0777611
118	0xbdf42884	-0.1192179
119	0xbe194bc2	-0.14970306
120	0xbe07e330	-0.13270259
121	0x3cdff1c8	0.02733697
122	0xbcdd19f8	-0.026989922
123	0xbde91050	-0.113800645
124	0xbd8a7980	-0.067614555
125	0x3d80a12c	0.06280741
126	0x3c187c7a	0.009307021
127	0x3dcee516	0.101022884
128	0x3e8a7bab	0.27047476
129	0x3c46075c	0.012086716
130	0x3c8aa6d2	0.01692525
131	0x3ed48c74	0.41513407
132	0x3dbd472c	0.092420906
133	0x3e99fadb	0.300742
134	0xbca3582b	-0.019939503
135	0xbe2d3e82	-0.16918376
136	0x3f1a1914	0.60194516
137	0x3f1f3d4c	0.62202907
138	0xbe6bc7a3	-0.23025374
139	0xbd3baa87	-0.045816924
140	0xbddb968e	-0.107220754
141	0xbda40026	-0.08007841
142	0xbde67185	-0.11252121
143	0xbc92c691	-0.01791695
144	0xbc68dd9f	-0.014212995
145	0x3ca3559f	0.019938288
146	0x3c387a2c	0.011259597
147	0x3d234396	0.039859377
148	0x3e29b8ca	0.16574398
149	0x3e8672a7	0.26259348
150	0x3e09fd91	0.13475634
151	0x3f9231e5	1.1421477
152	0x3eb97d56	0.36228436
153	0x3e5c96ea	0.21541944
154	0x3e2b6f57	0.16741692
155	0xbd7456d3	-0.059653115
156	0xbd88943f	-0.06668901
157	0x3e18ab78	0.1490916
158	0x3c1f282f	0.00971417
159	0x3f712fa5	0.94213325
160	0xbcf55fd2	-0.029952917
161	0x3f3c64bb	0.735912
162	0xbcd116d1	-0.025523575
163	0xbda36061	-0.07977367
164	0x3eb89b06	0.36055773
165	0xbd5196e3	-0.051169287
166	0x3f621a5c	0.8832147
167	0x3d2e10b8	0.042496413
168	0x3f328986	0.69741094
169	0x3d8ae61e	0.067821726
170	0xbd8af170	-0.06784332
171	0x3e4032aa	0.18769327
172	0xbc6c47ab	-0.014421384
173	0x3f43e3f0	0.7651968
174	0xbd3bbe5b	-0.045835834
175	0xbd8d15bd	-0.06888912
176	0xbe083e69	-0.13305058
177	0x3c4ce3f8	0.012505524
178	0x3f52565c	0.82163024
179	0xbdc51f40	-0.09625101
180	0x3fb2eb63	1.3978084
181	0xbf81865d	-1.011913
182	0x3f4039a7	0.7508797
183	0x3d8178fb	0.06321903
184	0x3ed34a4c	0.41267622
185	0x3e1c369b	0.15255205
186	0x3ce558f1	0.027996512
187	0x3c1cccdd	0.009570328
188	0x3e0f5cb5	0.14000209
189	0x3d8273fd	0.06369779
190	0x3ebe158b	0.3712581
191	0xbf0b9fed	-0.545409
192	0x3e8c27d7	0.27374145
193	0x3e7be88a	0.24600425
194	0x3e9cb6e5	0.30608287
195	0xbf23c047	-0.63965267
196	0x3f128b9b	0.5724427
197	0xbf576428	-0.841372
198	0x3f04fd8e	0.51949394
199	0x3ed6fa73	0.41987953
200	0xbec2d94e	-0.38056415
201	0xbeeecbb5	-0.4663979
202	0x3e243dbd	0.16039176
203	0x3e81ffc7	0.25390455
204	0x3e8e139c	0.27749336
205	0x3ed751f9	0.42054728
206	0x3e4950a7	0.19659673
207	0x3eac86d9	0.3369663
208	0xbdc1d7e0	-0.09465003
209	0x3ee5e31b	0.4489983
210	0xbc3c789a	-0.011503363
211	0xbe9cb430	-0.30606222
212	0x3e5dfee0	0.21679258
213	0xbeb1abc0	-0.34701347
214	0x3ebdae20	0.3704691
215	0xc0000fda	-2.0009675
216	0xbeb752a6	-0.35805243
217	0x3e194924	0.14969307
218	0x3ed0b354	0.40761817
219	0x3eaf24c9	0.34207752
220	0x3eb59d50	0.35471582
221	0x3e4f5b0a	0.20249572
222	0x3e802124	0.25025284
223	0xbfbbf54b	-1.4684232
224	0xbf4881cd	-0.7832306
225	0xbd61503e	-0.055008166
226	0x3ed51253	0.41615543
227	0x3e978608	0.29594445
228	0xbee57015	-0.44812074
229	0x3eb74bc1	0.35799983
230	0x3e037862	0.12838891
231	0x3f0ae059	0.5424858
232	0xbfaf433c	-1.3692393
233	0xbec16302	-0.3777085
234	0x3e8123f5	0.25222746
235	0x3eb7166f	0.35759303
236	0x3e885e95	0.2663466
237	0xbf046a0b	-0.5172431
238	0x3ed8e299	0.4236038
239	0x3d61ffb2	0.05517549
240	0x3eadfa55	0.3398005
241	0x3ed9ade9	0.42515495
242	0xbed047e7	-0.40679857
243	0x3f08385a	0.53210986
244	0xbf6cf8db	-0.92567223
245	0x3f96112c	1.172399
246	0xbf2b1c66	-0.6684021
247	0x3eb72415	0.35769716
248	0x3e9ba67e	0.3040046
249	0x3eedc249	0.4643729
250	0x3c41cfb4	0.011829305
251	0x3f1271ff	0.57205194
252	0xbd925cfd	-0.07146642
253	0x3f2220d6	0.63331354
254	0xbe727c2b	-0.23680179
255	0x3e95dffa	0.29272443

fc2.bias f4 [64]
0	0xbdb394b9	-0.08768601
1	0xbd5e3b6a	-0.05425588
2	0xbe6cf4c4	-0.23140246
3	0x3ecd9323	0.4015132
4	0x3ecfe7e0	0.40606594
5	0x3e806a3b	0.25081047
6	0xbe04c30f	-0.12965034
7	0xbd169188	-0.036759883
8	0x3eef4532	0.4673248
9	0xbd9192f9	-0.07108111
10	0xbe3bddfd	-0.183464
11	0x3b073554	0.0020631151
12	0xbe035631	-0.12825848
13	0x3e89666e	0.2683596
14	0xbc9619c8	-0.01832284
15	0x3e7a6677	0.2445315
16	0x3e9b5b5d	0.30343142
17	0x3cec911d	0.02887779
18	0x3d7b04fc	0.06128405
19	0x3da9a2db	0.08283015
20	0x3dbde72f	0.092726104
21	0x3e847351	0.2586923
22	0x3d54c59f	0.05194628
23	0x3cc13c04	0.023588188
24	0x3da22476	0.079171106
25	0x3c4257e8	0.011861779
26	0x3ecbaa95	0.3977858
27	0x3e9ab882	0.30218893
28	0x3e5073a7	0.20356618
29	0x3cf5d967	0.030010892
30	0x3d3c920d	0.046037722
31	0xbdab411e	-0.083620295
32	0x3d5ea111	0.054352824
33	0x3de88a02	0.11354448
34	0x3e456098	0.19275129
35	0xbe049e08	-0.12950909
36	0xbd86836d	-0.06568036
37	0xbdcd0782	-0.100111976
38	0x3d725890	0.05916649
39	0x3eae4bc4	0.3404218
40	0x3e9272ca	0.28603202
41	0x3ea936d5	0.33049646
42	0x3e82593b	0.25458702
43	0xbccbb8c0	-0.02486837
44	0x3e8d43f0	0.27590895
45	0xbcdd20ac	-0.026993118
46	0x3e226a3c	0.15860838
47	0x3edc8a15	0.43074098
48	0x3bfdd9c6	0.007746908
49	0xbd2707c4	-0.04077889
50	0xbdd443f9	-0.10364527
51	0x3e8f46b1	0.2798362
52	0x3e7a8fb9	0.24468888
53	0x3e5f46e8	0.21804392
54	0x3e8be107	0.2732012
55	0xbda02a79	-0.07820601
56	0x3e85d0e3	0.2613593
57	0x3eb4289f	0.3518724
58	0xbd2c02ab	-0.041994732
59	0x3d0100dd	0.031494964
60	0x3c78be15	0.015182038
61	0xbdb79a84	-0.089650184
62	0x3dfcfb6d	0.12352643
63	0xbd9f50f2	-0.07779111

fc3.weight f4 [5, 64]
0	0xbde79c14	-0.113090664
1	0x3d539de0	0.051664233
2	0xbf8c53d5	-1.0963084
3	0x3eee12c3	0.4649869
4	0x3f0ef7ea	0.55847037
5	0x3ef46265	0.4773132
6	0xbf71de07	-0.9447941
7	0x3c14b61c	0.009076621
8	0x3f5ca598	0.86190176
9	0xc019f3ce	-2.4055057
10	0xbf4d7747	-0.8026013
11	0x3db16998	0.086627185
12	0x3d8eca61	0.069721945
13	0x3fcbe938	1.5930548
14	0xbf4db51d	-0.8035448
15	0x3e8a519b	0.27015385
16	0x3edc9f65	0.43090358
17	0x3d10af8f	0.035323676
18	0xbf4fd1a4	-0.8117926
19	0xbf8f5dcf	-1.1200503
20	0xbf76f987	-0.964745
21	0x3ec05e9b	0.37572178
22	0xbdb03e27	-0.086056046
23	0xbf8b675e	-1.089092
24	0xbfb602cf	-1.4219607
25	0x3f2ead13	0.6823284
26	0xbf9e8618	-1.2384672
27	0x3ef4efe5	0.47839275
28	0x3f24a2e7	0.6431107
29	0xbeac32a0	-0.33632374
30	0xbfa22181	-1.2666475
31	0xbf9800f5	-1.1875292
32	0x3f91d9fe	1.1394651
33	0xbf303f13	-0.68846244
34	0x3eb5d608	0.35514855
35	0xbc161d60	-0.009162277
36	0x3bef7f80	0.0073089004
37	0x3dc11ef0	0.09429729
38	0xbf9ab174	-1.2085404
39	0x3ebcce62	0.36876208
40	0x3f52ce32	0.8234588
41	0x3f4c35f3	0.7976982
42	0x3f8921bc	1.071342
43	0x3de15522	0.11002566
44	0x3f1698e4	0.5882704
45	0xbd968a2c	-0.07350573
46	0x3f7dd3a3	0.99151057
47	0x3ecd45a7	0.40092203
48	0xbff3e12b	-1.9053091
49	0x3d87b212	0.06625761
50	0xbce39810	-0.02778247
51	0x3ef7f7d0	0.48431253
52	0x3f042573	0.5161964
53	0x3fe10bb4	1.7581697
54	0x3fd255d1	1.6432439
55	0xbcfb4908	-0.030674472
56	0x3eb60bed	0.35555974
57	0x3f40acf5	0.7526391
58	0x3ddbe784	0.107375175
59	0xbf90ce7a	-1.1313012
60	0x3fac8ee9	1.3481113
61	0x3cca6d41	0.0247103
62	0x3f992527	1.1964463
63	0xbc2a9bbc	-0.0104131065
64	0xbc3f3350	-0.011669949
65	0xbd83029e	-0.063969836
66	0xbc4aead3	-0.012385088
67	0x3f0b4ff5	0.5441888
68	0x3f0a6255	0.5405629
69	0x3eb8c288	0.36085916
70	0xbeda4dab	-0.4263738
71	0xbd75d634	-0.060018733
72	0x3f1c8b2c	0.6114986
73	0xbf38fe4b	-0.7226302
74	0xbe9ec6af	-0.3101096
75	0xbc5cc843	-0.0134754805
76	0xbda7a3a5	-0.081855096
77	0x3de4d489	0.1117335
78	0xbf12542b	-0.5715968
79	0x3e4deefa	0.20110694
80	0xbe42ad20	-0.19011354
81	0xbd987025	-0.07443265
82	0xbf0c1cbb	-0.5473134
83	0xbf09a7ed	-0.5377186
84	0xbf1a6c73	-0.6032173
85	0x3ec24f49	0.37951115
86	0x3d51b6fe	0.051199906
87	0xbf8ef974	-1.1169877
88	0xbf1c0f9e	-0.6096133
89	0x3ed3fa4d	0.41401902
90	0xbfa03332	-1.2515624
91	0x3eeefcfb	0.46677384
92	0x3d3d3eeb	0.04620258
93	0xbdc951b7	-0.09830039
94	0xbed9d796	-0.42547292
95	0xbf3122ed	-0.6919392
96	0x3eba006b	0.36328444
97	0xbf2cc5a9	-0.67489105
98	0x3ed9b621	0.42521766
99	0xbd1aaa30	-0.03775996
100	0xbd3487a8	-0.044074684
101	0xbd65a27c	-0.05606316
102	0xbf4bf7af	-0.7967481
103	0x3f0cc639	0.54989964
104	0x3f4d72c3	0.8025324
105	0x3d945f82	0.07244779
106	0x3d0568ff	0.032570835
107	0x3dbd0da6	0.09231119
108	0x3eaf0575	0.3418385
109	0x3ab72780	0.0013973564
110	0x3ef30da2	0.4747134
111	0x3e565129	0.20929398
112	0xbf24b7a8	-0.6434274
113	0xbdc7bb9f	-0.09752583
114	0xbdb9723d	-0.09054992
115	0x3eeb2db5	0.4593331
116	0x3f1992be	0.59989536
117	0x3e1f29e3	0.15543322
118	0x3d0130df	0.031540748
119	0xbd2940dc	-0.04132162
120	0x3f076bdd	0.5289896
121	0x3f2634a6	0.64924085
122	0x3d5b8361	0.05359209
123	0xbf3072db	-0.68925256
124	0x3ec2b520	0.38028812
125	0xbd39c04c	-0.045349404
126	0x3ec61efd	0.38695517
127	0x3b9f5c61	0.0048633073
128	0x3d8cbff4	0.0687255
129	0x3dd98748	0.10621506
130	0xbe82e403	-0.25564584
131	0x3f03d74c	0.5150039
132	0x3f0b8ded	0.54513437
133	0x3eb778bf	0.3583431
134	0x3d12ae33	0.03581066
135	0xbcdaf95f	-0.026730238
136	0x3f190a90	0.5978174
137	0xbf146871	-0.57971865
138	0xbbeb1608	-0.007174257
139	0xbc23fb3d	-0.01000863
140	0x3d9d6454	0.07685152
141	0x3dc2e600	0.09516525
142	0xbeccfb6a	-0.40035564
143	0xbccb96f0	-0.024852246
144	0xbf4d12f5	-0.8010705
145	0xbdbd556b	-0.09244808
146	0xbf149c4e	-0.58051
147	0xbf14de0a	-0.58151305
148	0xbf0e2315	-0.5552228
149	0x3f1061ae	0.5639905
150	0xbc198257	-0.009369454
151	0xbf870c00	-1.0550537
152	0xbf0b9253	-0.5452015
153	0xbc9285b8	-0.017886028
154	0xbfd80135	-1.6875368
155	0x3efdfd8c	0.49607503
156	0x3f5cc3cf	0.8623628
157	0x3e411ce4	0.18858677
158	0xbe9ccd6b	-0.3062547
159	0xbe61bbd1	-0.22044303
160	0x3e31b6e5	0.17354925
161	0xbf42e9b0	-0.7613783
162	0x3f112c61	0.5670834
163	0xbda47512	-0.08030142
164	0xbdb5cdf6	-0.088771746
165	0xbc1fb090	-0.009746686
166	0xbf0a7a14	-0.54092526
167	0x3edaf2a5	0.42763248
168	0x3f2c20b4	0.672374
169	0xbdd97300	-0.10617638
170	0x3f536561	0.82576567
171	0x3be65020	0.0070285946
172	0x3f4415e7	0.7659592
173	0xbc376ea0	-0.011195809
174	0x3f01392d	0.5047787
175	0x3f04e4bb	0.51911515
176	0xbe210f8c	-0.15728587
177	0x3d096b94	0.03354986
178	0xbdb61918	-0.08891505
179	0x3ef188e6	0.47174758
180	0x3f197577	0.5994486
181	0xbeaf9644	-0.3429433
182	0xbec93dd2	-0.39304978
183	0x3db76f47	0.08956771
184	0x3ecc2207	0.3986971
185	0x3f1d8f7f	0.6154708
186	0x3d7b0cc7	0.061291482
187	0xbf9dcc65	-1.2328001
188	0x3dc745e8	0.097301304
189	0x3dab4cdb	0.083642684
190	0x3ecd5df1	0.40110734
191	0x3d15abcc	0.03654079
192	0x3d1e0f2d	0.03858869
193	0xbdf51fc4	-0.119689494
194	0x3dcbcbfc	0.09951016
195	0x3eb2e96d	0.34943715
196	0x3f1ec9eb	0.6202685
197	0x3f24db9c	0.643976
198	0xbf2733aa	-0.6531321
199	0x3cefea7b	0.029286614
200	0x3f0ffbc2	0.56243527
201	0xbf0558ea	-0.520888
202	0xbf3e90a2	-0.7443944
203	0xbd8c79f3	-0.068591975
204	0xbdb12879	-0.08650298
205	0x3f3ae050	0.72998524
206	0xbf2cc2d5	-0.6748479
207	0xbf142b3d	-0.57878476
208	0xbf55786b	-0.8338687
209	0xbc6cf906	-0.014463669
210	0xbf40571b	-0.7513291
211	0xbec3df7d	-0.38256446
212	0xbf96a9cb	-1.1770567
213	0x3f080a18	0.531404
214	0xbdd4f7e4	-0.10398844
215	0xbfbdc612	-1.4826071
216	0xbef6699d	-0.48127452
217	0x3f8fbca8	1.1229448
218	0xbff31b95	-1.8992792
219	0x3f63305d	0.8874567
220	0xbdd46377	-0.10370534
221	0xbea90650	-0.3301263
222	0xbedb5fb6	-0.4284646
223	0xbf26c7a3	-0.6514837
224	0x3e9d0847	0.30670378
225	0x3d736aaa	0.059427895
226	0x3ef36ca5	0.47543827
227	0x3dd87c12	0.105705395
228	0xbcd1ff00	-0.025634289
229	0x3d857238	0.06515926
230	0xbf547483	-0.8299028
231	0x3ec9ac6c	0.3938936
232	0x3f5676af	0.83774847
233	0x3f85c130	1.0449581
234	0xbf1b4fcb	-0.6066863
235	0xbdfed54c	-0.12443027
236	0x3e7c9c93	0.24669103
237	0x3db2ed76	0.08736698
238	0x3f46b952	0.77626526
239	0x3d8e1bce	0.06938897
240	0xbf0e38cb	-0.5555541
241	0x3b013000	0.0019712448
242	0x3df2c4a8	0.118539155
243	0x3eddb282	0.43300253
244	0x3f2ec26d	0.6826542
245	0x3e804b11	0.2505727
246	0x3f062833	0.5240509
247	0xbd7b4834	-0.061348155
248	0x3f34275a	0.70372546
249	0x3f57748d	0.8416222
250	0x3d81eaf6	0.06343643
251	0xbf1f643b	-0.62262315
252	0x3e331609	0.17488874
253	0xbd4f5ab6	-0.050623618
254	0x3f3dc96e	0.7413548
255	0xbc559e57	-0.013038239

fc3.bias f4 [5]
0	0x3ec143c8	0.37747025
1	0x3d836f49	0.0641771
2	0x3e599a15	0.21250184
3	0xbc4efb97	-0.012633226
4	0x3a3c3071	0.0007178849
