misc_results/policy_dqn_10_planes_2000_episodes.pth (torch, 23129 bytes, 6 tensors)

fc1.weight f4 [64, 6]
0.41208 -0.22800894 6.7015142 0.6290246 0.083121866 -0.1350249 -0.2780303 0.1939393
-0.38801867 0.38696793 0.06143929 0.052722216 0.010406941 0.47996017 4.394429 -0.17638585
0.41069314 0.21456155 -0.3985094 0.3054693 0.10112446 -0.16277303 -0.40813842 0.19393875
0.91774577 0.22750022 4.501369 0.4622737 -0.17685895 0.0014031343 0.050023757 0.21802185
-0.47944033 -0.033936985 0.5463064 0.2923992 0.6811341 -0.29003456 0.24391998 0.88464665
0.14154698 0.06467199 -0.19958414 0.23347403 5.981225 0.5802011 0.105417915 -0.018843219
0.23594482 -0.25022078 6.4045033 -0.026953114 -0.046946917 -0.07845207 0.21027389 -0.05311735
5.7584667 -0.07761519 0.040801387 0.16648604 -0.22661293 -0.23234236 -0.107010394 -0.13381739
-0.27687362 0.33084628 0.5055435 0.5903567 1.1165633 -0.1948391 0.24664068 0.16068195
0.35827288 0.7520325 5.6920614 0.17949858 0.17940024 0.44542825 -0.14709407 -0.025984526
-0.13963386 -0.030005574 -0.049640477 0.21811694 0.5591459 -0.23497169 0.8168574 -0.52797383
0.7299943 -0.02843153 -0.25391117 -0.0745641 -0.19922742 0.011239648 -0.30220962 -0.10205507
0.055044435 0.3508221 1.6259079 0.67666173 -0.054960094 -0.07823305 -0.10642887 0.09899431
-0.31003165 -0.23901382 -0.06666115 0.18988864 0.103643 0.14553426 0.14402989 0.71562505
-1.5279454 -0.11620711 0.344114 0.64775646 0.7352714 -0.26767868 0.46026325 0.027581336
0.6273345 0.17348845 1.2709798 -0.22174227 -0.771984 0.0087605165 0.10814655 -0.0028182566
-0.28451398 -0.09036443 -0.3136168 -0.27468175 -0.33577853 0.13623282 0.50561494 1.6083506
0.123171225 0.13427225 0.031265188 -1.0439719 0.16093273 0.4162785 0.27660382 -0.3823447
0.4522212 0.5056662 0.7138666 -0.46222812 -0.81966174 -0.025771566 0.11032821 0.48116222
4.9646387 0.45525146 -0.29859632 -0.28760034 0.31040567 -0.25652522 2.4718854 0.5456632
0.21731365 -0.044359747 0.019608999 0.01790371 6.4003086 0.041407444 -0.0047441665 -0.00788042
0.14089544 0.77852905 0.2683123 0.25195548 -0.8916305 0.24429964 -0.5556647 -1.4467945
-0.34094483 -0.57258815 -2.1224449 0.04737132 -0.25034186 -0.36423114 -0.08755039 -0.81569964
-0.3118721 -0.5077259 0.13713846 0.21943302 6.254131 -0.35572767 -0.017153803 0.07867184
0.6440772 0.58323383 2.3371813 -0.17632352 0.10733363 0.09751929 0.10060341 0.031296063
-2.5837123 -0.02331097 0.119833305 0.0506358 0.5562733 0.26612133 4.359757 0.44188544
0.14732113 -0.3013482 0.79643977 0.7067011 -3.5369723 0.10223688 0.2546682 0.08435119
0.5600214 -0.048066307 -2.9560676 0.21977568 0.14279081 0.012936661 -0.3803116 0.30267376
0.03660643 0.008018374 -0.26040345 0.025369763 0.6820869 0.72890806 -3.4492345 0.23419948
0.4039571 0.035434697 -0.10474425 0.14795089 -1.3448509 0.31577718 0.17220674 0.2703758
0.29846093 0.22702956 1.5254362 0.24760677 -0.56989115 0.005208716 -0.00029106715 -0.09145981
5.9315534 -0.2922595 -0.04756711 -0.101808764 0.115539536 -0.026638296 0.29644132 -0.59138143
00000000: 26fc d23e 2d7b 69be ce72 d640 c207 213f
00000010: cc3b aa3d f843 0abe fd59 8ebe 0698 463e
00000020: 62aa c6be a920 c63e c4a7 7b3d 40f3 573d
00000030: e081 2a3c 57bd f53e 2a9f 8c40 7e9e 34be
00000040: 5f46 d23e 06b6 5b3e 6d09 ccbe 7966 9c3e
00000050: 571a cf3d f9ad 26be 85f7 d0be e197 463e
00000060: 63f1 6a3f d1f5 683e 370b 9040 23af ec3e
00000070: 831a 35be 60e9 b73a b6e5 4c3d 1f41 5f3e
00000080: 3479 f5be 8201 0bbd bcda 0b3f 59b5 953e
00000090: ce5e 2e3f 697f 94be 29c6 793e 3478 623f
000000a0: b1f1 103e c072 843d c95f 4cbe d113 6f3e
000000b0: 3266 bf40 0f88 143f 59e5 d73d 185d 9abc
000000c0: 859b 713e f01c 80be b1f1 cc40 c7cc dcbc
000000d0: 694b 40bd 7bab a0bd 0a52 573e 9491 59bd
000000e0: 5c45 b840 b6f4 9ebd 5b1f 273d 517b 2a3e
000000f0: 380d 68be 28eb 6dbe 4428 dbbd 6d07 09be
00000100: 61c2 8dbe af64 a93e 4c6b 013f 9e21 173f
00000110: 8ceb 8e3f e783 47be 608f 7c3e cf89 243e
00000120: 8b6f b73e 3485 403f 5e25 b640 7ace 373e
00000130: b2b4 373e 2c0f e43e d49f 16be 80dd d4bc
00000140: 2efc 0ebe 40ce f5bc d053 4bbd 0c5a 5f3e
00000150: 3024 0f3f 6b9c 70be 911d 513f 4b29 07bf
00000160: e8e0 3a3f 3de9 e8bc a500 82be 10b5 98bd
00000170: 4602 4cbe 8026 383c 38bb 9abe 4002 d1bd
00000180: 4676 613d f49e b33e c01d d03f b439 2d3f
00000190: d61d 61bd a638 a0bd 61f7 d9bd 87bd ca3d
000001a0: 78bc 9ebe 0ac0 74be a485 88bd 2b72 423e
000001b0: c842 d43d ef06 153e 927c 133e 3433 373f
000001c0: b793 c3bf fefd edbd b62f b03e 5ed3 253f
000001d0: bf3a 3c3f 2e0d 89be a0a7 eb3e 41f2 e13c
000001e0: fe98 203f f5a6 313e 77af a23f 6810 63be
000001f0: bea0 45bf 4588 0f3c f07b dd3d 80b2 38bb
00000200: d1ab 91be fc10 b9bd 6292 a0be 16a3 8cbe
00000210: 2aeb abbe 9e80 0b3e fb6f 013f 6fde cd3f
00000220: 3241 fc3d aa7e 093e ed0f 003d dfa0 85bf
00000230: 8dcb 243e 7522 d53e 049f 8d3e afc2 c3be
00000240: 8a89 e73e 5773 013f f6bf 363f 2aa9 ecbe
00000250: 5ad5 51bf e41e d3bc c2f3 e13d e55a f63e
00000260: 52de 9e40 b816 e93e 9ee1 98be 5a40 93be
00000270: 7eed 9e3e 4657 83be 5f33 1e40 95b0 0b3f
00000280: 7887 5e3e 91b2 35bd 0da3 a03c cdaa 923c
00000290: 54cf cc40 da9a 293d f474 9bbb e11c 01bc
000002a0: e546 103e ae4d 473f 3b60 893e 4f00 813e
000002b0: e541 64bf af29 7a3e 0b40 0ebf 9030 b9bf
000002c0: 5290 aebe 2395 12bf 23d6 07c0 6e08 423d
000002d0: cf2c 80be 817c babe 9e4d b3bd b1d1 50bf
000002e0: b3ad 9fbe 53fa 01bf 066e 0c3e 0db3 603e
000002f0: d721 c840 f021 b6be 2286 8cbc b41e a13d
00000300: 3ee2 243f d04e 153f 6194 1540 278e 34be
00000310: bcd1 db3d 32b8 c73d 2909 ce3d 4d30 003d
00000320: 8b5b 25c0 a6f6 bebc 2a6b f53d 7c67 4f3d
00000330: ed67 0e3f 0e41 883e 2183 8b40 cf3e e23e
00000340: 5adb 163e 504a 9abe 7ae3 4b3f 5dea 343f
00000350: c15d 62c0 9261 d13d df63 823e 51c0 ac3d
00000360: 905d 0f3f 2de1 44bd 3630 3dc0 e00c 613e
00000370: c137 123e 4af4 533c 34b8 c2be 0ef8 9a3e
00000380: a0f0 153d 805f 033c 9a53 85be 40d4 cf3c
00000390: 3f9d 2e3f b899 3a3f 42c0 5cc0 fdd1 6f3e
000003a0: 77d3 ce3e f923 113d 2784 d6bd 7080 173e
000003b0: 1324 acbf 8cad a13e f756 303e b26e 8a3e
000003c0: dfcf 983e 707a 683e 7e41 c33f a18c 7d3e
000003d0: 63e4 11bf e0ad aa3b 5f9a 98b9 484f bbbd
000003e0: 49cf bd40 0aa3 95be bbd5 42bd 1d81 d0bd
000003f0: fe9f ec3d 8e38 dabc 28c7 973e c664 17bf

fc1.bias f4 [64]
-0.46538538 -0.4126996 0.31247288 -0.4176494 0.38603222 0.39424396 -0.34381464 -0.3594018
-0.43417248 -0.3602971 -0.27409962 -0.42652848 0.24000715 -0.36909524 -0.15301321 -0.37465397
-0.13942616 0.7966262 -0.072731316 0.22433084 -0.02101339 -0.33518624 0.008647898 -0.24830984
-0.34215102 0.18618008 -0.169322 -0.5456258 -0.3075721 0.83228207 -0.08319515 -0.36229986
0.501678 0.97419226 0.20321535 0.60650015 0.7517252 -0.2850477 0.57744545 0.86908686
-0.038522094 -0.23624559 0.39571488 0.89357764 -0.52764076 -0.52662987 -0.35820657 0.5299497
-0.2327164 0.56648636 0.57651407 -0.37857354 -0.25672734 0.25350562 0.37318274 0.490992
-0.41824493 0.5555108 -0.42277828 0.1850538 0.67634344 0.32157412 0.64521813 0.4486216
00000000: fe46 eebe 5d4d d3be 72fc 9f3e 24d6 d5be
00000010: 04a6 c53e 58da c93e 7908 b0be 8303 b8be
00000020: db4b debe dd78 b8be c956 8cbe f161 dabe
00000030: 6fc4 753e 0dfa bcbe 7faf 1cbe a5d2 bfbe
00000040: bbc5 0ebe b2ef 4b3f 28f4 94bd fcb6 653e
00000050: 4624 acbc 889d abbe eaaf 0d3c ef44 7ebe
00000060: 6b2e afbe fea5 3e3e bf62 2dbe 22ae 0bbf
00000070: 177a 9dbe 7010 553f 3862 aabd 5e7f b9be
00000080: f86d 003f aa64 793f af17 503e 9843 1b3f
00000090: 1071 403f c6f1 91be 77d3 133f 7a7c 5e3f
000000a0: 58c9 1dbd 5dea 71be 249b ca3e 81c1 643f
000000b0: 7713 07bf 37d1 06bf da66 b7be c9aa 073f
000000c0: 354d 6ebe 4005 113f 6d96 133f 64d4 c1be
000000d0: c471 83be 7dcb 813e cf11 bf3e 4e63 fb3e
000000e0: 3324 d6be f535 0e3f 6576 d8be be7e 3d3e
000000f0: d824 2d3f 5da5 a43e 042d 253f bbb1 e53e

fc2.weight f4 [64, 64]
0.034335405 -0.042186618 0.007115466 -0.06173648 0.07510828 -0.042405427 -0.07713651 -0.02697203
0.014626646 0.003375745 -0.071946636 -0.08561445 -0.11387173 -0.05277872 -0.017087143 0.092806995
-0.06252317 -0.018643087 -0.06295271 -0.0689952 -0.08639823 -0.123524114 -0.078360066 -0.016423225
0.019335791 0.03591332 -0.09108108 -0.135301 -0.07676719 -0.06740844 -0.06633778 0.05371441
0.01605886 -0.018536622 -0.102045216 -0.09092696 0.09325362 -0.10500635 -0.0083192885 -0.11793976
-0.13830596 0.0019085532 -0.056733247 -0.11837891 -0.06676601 0.09801531 -0.058065385 0.07811191
0.11904712 -0.08635707 -0.030365951 0.10167204 -0.054312155 0.03106835 0.12382124 -0.12622403
0.013855162 0.10599336 -0.051021352 -0.13676138 -0.079502 -0.088752836 -0.00047117946 0.014653996
0.49117094 -0.045613192 0.3250092 -0.07540254 0.18328784 -0.38751337 0.6718316 0.55118716
0.3740014 0.54354346 -0.059710167 0.8529816 0.3233688 -0.061177135 1.1214634 -0.010744795
0.6581855 -0.24036044 0.87461555 0.054068614 0.6902956 0.041387632 0.49661765 -0.5013302
0.9041722 0.2265658 0.7686836 0.6266146 0.49161363 1.0125312 -0.4729796 0.5300936
0.19580367 -1.2055684 0.091755144 -0.88440144 -1.0954491 -0.09255114 -0.93462116 -0.5991115
0.6917025 0.5024184 0.8307368 -0.78142697 1.4918047 0.40377307 0.009877965 1.9460795
-0.064539894 -0.5555536 -0.060801316 0.8133022 0.89633644 0.27642116 1.5292093 -0.77234757
0.5959309 -0.092928745 0.9773276 0.27543503 -0.005600899 0.2876446 -0.37353173 -0.25061193
0.43387008 -0.059150238 0.07982993 0.06667034 0.21367475 -0.13076214 0.5463377 0.4254381
0.3855045 0.58528227 -0.1047608 0.62183595 0.3201113 0.071516424 1.0004584 0.087805256
0.49704847 -0.19668946 1.0226328 -0.009623144 0.6192105 -0.11513077 0.58881277 -0.4703769
1.0644984 0.23387732 0.5409409 0.4136255 0.6814259 0.9012993 -0.0687021 0.50591916
0.044574473 -1.1132782 0.17391916 -0.7919705 -0.976262 -0.075027645 -0.8285331 -0.5007461
0.58455884 0.44645894 1.2170424 -0.7764936 1.6360295 0.44387513 0.030008823 1.9838368
0.078883216 -0.313926 0.16552518 0.81639594 0.8671618 0.31637543 1.4699278 -0.7261488
0.53685963 -0.31374028 0.9871663 0.226698 0.024287827 0.083336055 -0.20497142 -0.34526214
-0.035598055 -0.03230013 -0.0062348098 -0.04759112 -0.06634498 0.048427805 -0.12341185 0.085328504
-0.077505976 -0.10475434 -0.0044931024 0.022405818 -0.08340745 -0.072393745 -0.11474228 0.027634352
0.07853481 0.06706007 0.115658775 0.056581452 -0.06284776 0.068204165 0.050278425 0.033672377
-0.07249908 0.0961408 -0.038719237 -0.0035703182 0.08213632 -0.09408949 -0.07866143 -0.0066901296
-0.109281406 -0.08744928 0.10771966 0.05250722 0.11021705 0.05857946 0.08759479 -0.004714519
-0.027590677 -0.06106296 0.055567473 0.08640416 -0.0007017553 0.011858851 -0.044659123 -0.050043166
0.059569627 -0.08820853 -0.05483952 -0.07364604 0.054389924 -0.0765098 -0.024238318 -0.08016436
0.056999847 -0.08445169 -0.11196816 -0.12342912 -0.11435117 -0.041641444 -0.058963075 -0.010676414
00000000: 48a3 0c3d e0cb 2cbd db28 e93b 64df 7cbd
00000010: 5fd2 993d 50b1 2dbd bff9 9dbd 72f4 dcbc
00000020: 9aa4 6f3c 9a3b 5d3b c258 93bd a156 afbd
00000030: 9535 e9bd 802e 58bd 56fa 8bbc 9811 be3d
00000040: 260c 80bd 63b9 98bc 5aed 80bd 5b4d 8dbd
00000050: 8ef1 b0bd 36fa fcbd 3e7b a0bd 008a 86bc
00000060: 1866 9e3c d819 133d b888 babd 588c 0abe
00000070: 1e38 9dbd 700d 8abd 1adc 87bd a403 5c3d
00000080: df8d 833c 1dda 97bc 15fd d0bd ea37 babd
00000090: c1fb be3d 920d d7bd a04d 08bc 678a f1bd
000000a0: 14a0 0dbe 6b28 fa3a 1f61 68bd a470 f2bd
000000b0: 9ebc 88bd 40bc c83d f8d5 6dbd 23f9 9f3d
000000c0: face f33d fadb b0bd 04c2 f8bc 6e39 d03d
000000d0: 6c76 5ebd 0d83 fe3c fe95 fd3d df40 01be
000000e0: c300 633c 0c13 d93d c4fb 50bd 2d0b 0cbe
000000f0: f2d1 a2bd 0cc4 b5bd a308 f7b9 5017 703c
00000100: c27a fb3e e6d4 3abd 9b67 a63e a66c 9abd
00000110: cfaf 3b3e 2768 c6be 28fd 2b3f 9a1a 0d3f
00000120: 1d7d bf3e aa25 0b3f a692 74bd 015d 5a3f
00000130: 9890 a53e e094 7abd 1d8c 8f3f f00a 30bc
00000140: d87e 283f 0c21 76be cee6 5f3f 0d77 5d3d
00000150: 36b7 303f 1486 293d ab44 fe3e 2d57 00bf
00000160: d477 673f dd00 683e 73c8 443f d069 203f
00000170: c8b4 fb3e 9f9a 813f 622a f2be 37b4 073f
00000180: c280 483e 1150 9abf 1fea bb3d 2268 62bf
00000190: ad37 8cbf 748b bdbd 5543 6fbf 5f5f 19bf
000001a0: 6a13 313f 7e9e 003f 2bab 543f 990b 48bf
000001b0: 75f3 be3f 58bb ce3e 30d7 213c 2219 f93f
000001c0: 7e2d 84bd c338 0ebf cd0a 79bd 9334 503f
000001d0: 4e76 653f 1387 8d3e 21bd c33f 92b8 45bf
000001e0: ed8e 183f 6d51 bebd 2432 7a3f d205 8d3e
000001f0: bf87 b7bb 2746 933e 8d3f bfbe 3550 80be
00000200: 3824 de3e 8547 72bd e07d a33d 768a 883d
00000210: 8ecd 5a3e 83e6 05be cadc 0b3f 06d3 d93e
00000220: d960 c53e 0fd5 153f d58c d6bd a430 1f3f
00000230: a1e5 a33e 3477 923d 050f 803f 3ed3 b33d
00000240: 237d fe3e f668 49be a2e5 823f 64aa 1dbc
00000250: 9484 1e3f aec9 ebbd 6fbc 163f 3ed5 f0be
00000260: 7c41 883f 897d 6f3e 1a7b 0a3f b9c6 d33e
00000270: ee71 2e3f 8dbb 663f b0b3 8cbd eb83 013f
00000280: b993 363d e67f 8ebf dd17 323e 94be 4abf
00000290: 4eec 79bf 18a8 99bd bf1a 54bf e530 00bf
000002a0: a6a5 153f 4496 e43e 0cc8 9b3f 49c8 46bf
000002b0: 6a69 d13f 9a43 e33e 10d5 f53c 5dee fd3f
000002c0: 868d a13d e9ba a0be 6f7f 293e 53ff 503f
000002d0: 51fe 5d3f f6fb a13e 9826 bc3f e3e4 39bf
000002e0: a26f 093f 91a2 a0be eeb6 7c3f 8523 683e
000002f0: 44f7 c63c 18ac aa3d 07e4 51be 33c6 b0be
00000300: 44cf 11bd 244d 04bd 604d ccbb e8ee 42bd
00000310: e0df 87bd 3c5c 463d 5abf fcbd b6c0 ae3d
00000320: 74bb 9ebd 7289 d6bd e03a 93bb 688c b73c
00000330: 86d1 aabd 2c43 94bd 00fe eabd 7061 e23c
00000340: dcd6 a03d ca56 893d 82de ec3d f4c1 673d
00000350: 54b6 80bd a0ae 8b3d c0f0 4d3d 0cec 093d
00000360: 667a 94bd 78e5 c43d 1098 1ebd 00fc 69bb
00000370: 1637 a83d feb1 c0bd 3e19 a1bd e038 dbbb
00000380: eece dfbd 9c18 b3bd 209c dc3d d011 573d
00000390: 7ab9 e13d 04f1 6f3d e664 b33d 407c 9abb
000003a0: d805 e2bc 281d 7abd b89a 633d aaf4 b03d
000003b0: 00f6 37ba a04b 423c 7cec 36bd 10fa 4cbd
000003c0: 48ff 733d aca6 b4bd 689f 60bd bcd3 96bd
000003d0: f8c7 5e3d 2cb1 9cbd 708f c6bc 362d a4bd
000003e0: ac78 693d 02f5 acbd 904f e5bd 68c8 fcbd
000003f0: f230 eabd 3890 2abd 4483 71bd 20ec 2ebc

fc2.bias f4 [64]
0.037708208 -0.25344485 -0.27408955 -0.01745984 0.07983745 0.015028158 0.0858405 0.08434725
-0.01149754 0.08624702 -0.11068672 0.49153727 -0.2006661 0.023343712 -0.15601452 0.09249006
-0.1066453 -0.12962566 -0.14824936 -0.09939833 -0.06759117 -0.051445186 0.034665693 -0.12904015
-0.022767106 -0.1582614 -0.046234954 0.02306753 -0.20355421 -0.17235707 -0.29524016 -0.12410901
-0.12251679 -0.20259939 -0.17072311 -0.29297963 -0.08841781 0.09838135 0.0017465677 0.55370283
-0.24474461 0.38568625 0.043985 -0.13931638 -0.09892855 0.023487741 -0.060008887 -0.22822715
-0.2357687 0.34381762 0.08396654 -0.10991666 -0.09622576 0.268345 -0.14918706 -0.083847985
-0.21625406 -0.08131387 -0.16413243 0.018765982 -0.060788583 0.027091647 -0.10019035 -0.04487757
00000000: ec73 1a3d 86c3 81be 7755 8cbe f007 8fbc
00000010: d181 a33d aa38 763c 25cd af3d 40be ac3d
00000020: 2e60 3cbc 47a2 b03d b8af e2bd c6aa fb3e
00000030: 6a7b 4dbe 503b bf3c 45c2 1fbe 6e6b bd3d
00000040: da68 dabd 97bc 04be aece 17be 5a91 cbbd
00000050: 3d6d 8abd 30b8 52bd 9dfd 0d3d 1a23 04be
00000060: 1582 babc 470f 22be dd60 3dbd 1ef8 bc3c
00000070: 8470 50be 5f7e 30be b829 97be dd2c febd
00000080: 15ea fabd 3776 4fbe 0ad2 2ebe 6d01 96be
00000090: 6614 b5bd 297c c93d 16ed e43a 78bf 0d3f
000000a0: 559e 7abe ab78 c53e 9e29 343d f4a8 0ebe
000000b0: 0d9b cabd 5d69 c03c e1cb 75bd 61b4 69be
000000c0: 5a6d 71be dd08 b03e a6f6 ab3d fc1b e1bd
000000d0: 0312 c5bd 8464 893e 7ec4 18be 7eb8 abbd
000000e0: b471 5dbe e387 a6bd 5512 28be 1ebb 993c
000000f0: 73fd 78bd 4def dd3c 9930 cdbd 8bd1 37bd

fc3.weight f4 [5, 64]
0.05942851 -0.5990483 -0.7240013 0.04769388 0.80094737 0.11317365 -0.109726824 -0.01073046
0.1170464 0.00087699114 -0.028201826 0.5850631 -0.44370797 0.09756456 -0.47879103 0.12316263
-0.017011538 -0.83619136 -0.658624 -0.12017739 -0.10667419 -0.02272062 -0.04668088 -0.1027891
-0.024627078 0.008953767 0.5657694 0.73328066 -0.51814336 -0.47638354 -0.6917839 -0.4685633
-0.56516963 -0.49760196 -0.5529296 -0.46762154 -0.58108896 0.62705153 0.6431323 -1.9480203
-0.5581674 -2.5231757 0.075745165 -0.561926 -0.105214596 -0.042877838 -0.040351126 -0.507722
-0.5002391 0.66282517 0.01393792 -0.025908738 -0.027638465 0.7132319 -0.60802084 -0.3753828
-0.5726258 0.035035603 -0.476601 0.060759265 -0.5518758 0.024065599 -0.55830497 -0.09174174
-0.086365186 -0.44750363 -0.6306133 0.077364355 0.5910685 -0.08268933 -0.054672074 0.11248799
0.005079011 -0.12747732 0.052289784 0.604237 -0.53773814 -0.11034104 -0.47265354 0.08730839
0.101991236 -0.8061889 -0.7465268 0.031129137 0.11660333 -0.11078546 0.04538585 0.13219944
0.10664429 -0.019254565 0.5933978 0.6094854 -0.50536036 -0.48982856 -0.6699347 -0.6210525
-0.65683514 -0.69331676 -0.4838492 -0.4617863 -0.4990047 0.60962546 0.7948125 -2.2627861
-0.66637677 -2.7036858 0.07504961 -0.33683905 0.07530056 0.016575607 -0.052317455 -0.3151443
-0.78692615 0.6914122 0.10290699 0.12402645 -0.028509885 0.85904926 -0.5574874 -0.46388984
-0.5616532 0.01456711 -0.6812297 0.03127613 -0.4660692 0.047600396 -0.45307928 -0.07585321
0.016881123 -0.5463793 -0.713507 -0.047511563 0.8502035 -0.026039556 -0.01967524 -0.0074745566
-0.079220265 -0.104469776 0.0444581 -0.040498693 -0.39739165 -0.016231284 -0.37623358 0.100164294
0.0149541665 -0.6883355 -0.47768542 -0.011814609 0.100536376 -0.057628393 -0.089997575 -0.0043307673
0.07849427 -0.095896035 0.75208664 0.66017866 -0.23319015 -0.53852373 -0.48791328 -0.19319227
-0.45337242 -0.47215334 -0.40923214 -0.4613521 -0.45550627 0.81977135 0.67362475 -0.38681993
-0.57898456 -1.046226 0.013155234 -0.41101083 -0.09599848 0.102251485 -0.06989848 -0.64513224
-0.32371932 0.40506583 -0.08003616 0.06187442 0.027717337 0.2557807 -0.4260676 -0.32864368
-0.43927652 0.050734073 -0.39507517 -0.0001295463 -0.280121 -0.028588325 -0.2493516 0.120739475
-0.0060907444 -0.5496603 -0.46175134 0.10475622 0.73985547 0.021443415 0.027244804 0.105980396
-0.084856965 0.01892221 -0.064020984 1.1337699 -1.0970073 0.060037732 -0.89222074 -0.10159658
0.10469553 -1.2050402 -0.8526961 0.113464884 0.09010318 -0.042888425 0.08027482 0.02420411
0.009933735 -0.074597865 1.0500333 1.0640537 -1.142028 -0.72449297 -0.7147034 -1.329137
-0.980848 -1.1613499 -0.74784714 -1.1151812 -0.3427966 0.5407177 1.0738646 -5.511589
-0.50688875 -4.375652 0.07943706 -0.28872478 0.033194833 -0.06875184 0.111923024 -0.36073077
-0.88176465 1.1655539 0.048277915 -0.108868375 0.10141891 1.1745092 -0.68935615 -1.3310629
-0.998978 -0.033626158 -1.2552215 -0.06269531 -0.7655891 0.10164424 -0.9480357 -0.0025669038
00000000: 4f6b 733d 3b5b 19bf 2658 39bf a85a 433d
00000010: e30a 4d3f 96c7 e73d 75b8 e0bd d0ce 2fbc
00000020: 06b6 ef3d e1e5 653a 8407 e7bc b2c6 153f
00000030: b12d e3be eecf c73d 1924 f5be b03c fc3d
00000040: c85b 8bbc a310 56bf 959b 28bf 901f f6bd
00000050: ff77 dabd 9820 babc 7334 3fbd 1783 d2bd
00000060: babe c9bc d2b2 123c 43d6 103f 48b8 3b3f
00000070: 0ba5 04bf 8be8 f3be c018 31bf 87e7 efbe
00000080: f5ae 10bf afc5 febe cb8c 0dbf 176c efbe
00000090: 3fc2 14bf 7386 203f 52a4 243f bb58 f9bf
000000a0: 0fe4 0ebf b67b 21c0 4820 9b3d 62da 0fbf
000000b0: c07a d7bd aca0 2fbd 3947 25bd 12fa 01bf
000000c0: ab0f 00bf e9ae 293f e05b 643c 903e d4bc
000000d0: 106a e2bc 5e96 363f 41a7 1bbf 2d32 c0be
000000e0: 9b97 12bf 7e81 0f3d 0c05 f4be b5de 783d
000000f0: bc47 0dbf 3825 c53c 13ed 0ebf 18e3 bbbd
00000100: 3be0 b0bd 321f e5be e06f 21bf 3471 9e3d
00000110: 4450 173f 0659 a9bd d3ef 5fbd 1a60 e63d
00000120: d56d a63b 6a89 02be d02d 563d 47af 1a3f
00000130: 35a9 09bf 7cfa e1bd a5ff f1be bece b23d
00000140: c8e0 d03d 6562 4ebf 611c 3fbf 8802 ff3c
00000150: bacd ee3d 7de3 e2bd 83e6 393d 4a5f 073e
00000160: 5268 da3d c0bb 9dbc ebe8 173f 3c07 1c3f
00000170: 4c5f 01bf cfca fabe d780 2bbf 4cfd 1ebf
00000180: 5926 28bf 357d 31bf 15bb f7be 416f ecbe
00000190: 8b7d ffbe 6a10 1c3f d578 4b3f 7dd1 10c0
000001a0: ab97 2abf 3009 2dc0 9cb3 993d 2b76 acbe
000001b0: 2e37 9a3d 91c9 873c d44a 56bd 985a a1be
000001c0: fe73 49bf 6400 313f e6c0 d23d 9401 fe3d
000001d0: 908d e9bc a7ea 5b3f 7fb7 0ebf f882 edbe
000001e0: 81c8 0fbf e3aa 6e3c 1265 2ebf 661b 003d
000001f0: 9fa0 eebe a2f8 423d 02fa e7be ee58 9bbd
00000200: 484a 8a3c 84df 0bbf 65a8 36bf 7c9b 42bd
00000210: f0a6 593f e850 d5bc f82d a1bc 20ed f4bb
00000220: 3c3e a2bd 40f4 d5bd b219 363d f5e1 25bd
00000230: eb76 cbbe 78f7 84bc b0a1 c0be f022 cd3d
00000240: 5202 753c c136 30bf 2f93 f4be 1092 41bc
00000250: 04e6 cd3d c00b 6cbd a650 b8bd 1ce9 8dbb
00000260: 9bc1 a03d 2465 c4bd c088 403f 7801 293f
00000270: 66c9 6ebe b1dc 09bf c5cf f9be 32d4 45be
00000280: 6e20 e8be 15be f1be e086 d1be 5836 ecbe
00000290: 1e38 e9be 89dc 513f ac72 2c3f 430d c6be
000002a0: 5538 14bf bcea 85bf 0d89 573c 0370 d2be
000002b0: da9a c4bd 3a69 d13d ef26 8fbd 6327 25bf
000002c0: 8abe a5be ca64 cf3e 00ea a3bd 0870 7d3d
000002d0: 780f e33c b0f5 823e 8825 dabe fc43 a8be
000002e0: dae8 e0be 88ce 4f3d 4b47 cabe d2d6 07b9
000002f0: 056c 8fbe 1032 eabc 0756 7fbe 4246 f73d
00000300: de94 c7bb 8ab6 0cbf ac6a ecbe 6e8a d63d
00000310: 2b67 3d3f 1aaa af3c 7f30 df3c 400c d93d
00000320: 7dc9 adbd c002 9b3c 6f1d 83bd 5f1f 913f
00000330: bc6a 8cbf 20ea 753d 9468 64bf de11 d0bd
00000340: 9c6a d63d c23e 9abf 4b4a 5abf 4760 e83d
00000350: 0488 b83d c6ab 2fbd 2067 a43d b347 c63c
00000360: 1bc1 223c c4c6 98bd 7e67 863f e932 883f
00000370: f92d 92bf 5f78 39bf cdf6 36bf 2921 aabf
00000380: db18 7bbf 1da7 94bf e972 3fbf 42be 8ebf
00000390: 0983 afbe 7a6c 0a3f 6574 893f f05e b0c0
000003a0: 76c3 01bf 5705 8cc0 e6af a23d bcd3 93be
000003b0: 4ef7 073d c4cd 8cbd e637 e53d b4b1 b8be
000003c0: 54bb 61bf df30 953f 10bf 453d 62f6 debd
000003d0: b8b4 cf3d 5156 963f a579 30bf 4560 aabf
000003e0: 06bd 7fbf 95bb 09bd 19ab a0bf 6666 80bd
000003f0: a6fd 43bf db2a d03d 78b2 72bf 8039 28bb

fc3.bias f4 [5]
-0.10589762 0.198634 -0.018713748 0.87843573 -0.20898254
00000000: dae0 d8bd b666 4b3e 934d 99bc 2ae1 603f
00000010: 85ff 55be
