dqn_solution_analysis/dqn_policy_2_planes_200_episodes.pth (torch, 23105 bytes, 6 tensors)

fc1.weight f4 [64, 6]
0.7255352 0.036385853 0.29111725 0.5045397 0.4076311 -0.30147058 -0.27402318 0.19426036
-0.38108784 0.40350014 0.086898565 0.052722216 0.09001683 0.5055997 0.21767819 -0.10952681
0.40395308 0.35396197 -0.5548206 0.48420614 0.644838 -0.8818088 0.36257708 0.2459514
0.87026614 0.014337288 -0.53730655 0.1146204 -0.22550601 0.06002886 -0.28333282 -0.20374876
-0.38292438 0.0012811072 0.23132364 0.19856095 0.5766652 -0.3251029 0.0194759 1.4627436
0.18405837 0.051842622 -0.59328884 0.22084944 1.0921652 -0.06296229 0.7619064 0.010963319
0.9180516 0.39898518 0.5135399 -0.040899165 -0.2641347 -0.018285846 0.60652214 0.46385798
-0.051755723 -0.52586406 -0.19481604 0.8079283 -0.22659463 -0.2328313 -0.109231174 -0.13194975
-0.27763772 0.32991964 0.46272552 0.5419563 0.5824174 -0.0014588705 0.6388915 -0.1683838
0.35621473 0.7181582 0.3860564 0.15120696 0.1794119 0.7860676 -0.14709407 -0.025984526
-0.13963386 -0.030005574 -0.049640477 0.21811694 0.69998866 0.015495206 -0.26952168 0.45880398
0.025348997 -0.33881587 -0.25391117 -0.0745641 -0.19922742 0.011239648 -0.30220962 -0.10205507
-0.1593178 0.10136444 1.1778977 0.46389356 0.044978812 -0.50939167 0.020745216 -0.23075658
-0.06030822 0.15874581 -1.9620883 0.0442966 0.13131672 0.27479652 0.28610876 1.4281942
-0.33277094 -0.15005516 0.60485834 0.6157182 -0.8015253 -0.10063199 0.34094465 0.29034784
0.38460696 -0.033371527 0.33029908 -0.10763928 -1.6854615 0.15847322 0.10814655 -0.0028182566
-0.28451398 -0.09036443 -0.3136168 -0.27468175 0.03629628 0.044777993 -0.5958474 0.90376157
0.07669961 -1.0714082 0.36069557 -0.052402213 -0.4330281 2.0882585 -0.03577199 -0.056505475
0.13982496 0.29172587 0.25635856 -0.26072168 -0.023772586 -1.1450597 -0.3480624 0.2014675
0.4577027 1.5424787 -0.21003038 -0.4599202 0.08749783 -0.596783 0.44631982 1.1280868
0.2857216 0.7399534 0.5899556 0.5656071 0.91503876 0.07608687 -0.24854697 0.11445942
0.72507674 0.6848346 -0.7855676 0.27437127 0.07080941 0.17791286 -0.2519162 -0.48637673
0.10437914 -1.4220345 0.23466522 -0.06271927 -0.38607892 -0.37859586 -0.08018677 -0.30585983
-0.07356512 0.088553414 0.55144167 0.6329537 0.26026818 -0.2968372 -0.35835367 0.23250112
0.7816981 0.5146059 -0.7746745 -0.18110174 0.021213226 0.38518986 -0.4071184 -0.5766301
0.06853632 0.5229292 0.17186725 1.0849017 0.7040256 0.35052752 0.080241434 0.38162094
0.26858872 -0.33245015 0.74059856 0.38738593 -0.4026094 0.09352569 -0.15619375 0.33749032
0.7614004 0.14041658 -0.799819 0.038420614 -0.14763384 0.2579168 -0.3803116 0.30267376
0.03660643 0.008018374 -0.26040345 0.025369763 0.6821203 0.7826842 -0.61278015 -0.48979548
0.09267517 0.59531504 -0.40287492 0.13233392 -0.14492834 1.5232943 -0.27155262 -0.08968986
0.59616 0.3550456 -0.3388335 0.084131554 -0.0769747 0.67514926 0.53591704 0.37834656
0.87604636 0.16104388 -0.57469696 -0.40105408 -0.020965138 0.028827915 0.4217211 -0.17988476
00000000: adbc 393f 5509 153d 520d 953e 8429 013f
00000010: 06b5 d03e 5a5a 9abe c44c 8cbe 30ec 463e
00000020: f21d c3be 9297 ce3e e0f7 b13d 40f3 573d
00000030: be5a b83d fb6e 013f 08e7 5e3e 984f e0bd
00000040: f0d2 ce3e 813a b53e b908 0ebf dee9 f73e
00000050: 1a14 253f 39be 61bf b4a3 b93e afda 7b3e
00000060: c3c9 5e3f f2e6 6a3c ec8c 09bf 1abe ea3d
00000070: 0ceb 66be d2e0 753d 0011 91be 84a3 50be
00000080: aa0e c4be d3ea a73a 1be0 6c3e 9053 4b3e
00000090: 55a0 133f e373 a6be ec8b 9f3c 2f3b bb3f
000000a0: cc79 3c3e ee58 543d c7e1 17bf 5b26 623e
000000b0: 12cc 8b3f 60f2 80bd 4c0c 433f 7e9f 333c
000000c0: 6e05 6b3f c947 cc3e 5a77 033f e285 27bd
000000d0: aa3c 87be 33cc 95bc 0945 1b3f cb7e ed3e
000000e0: cffd 53bd 079f 06bf db7d 47be 64d4 4e3f
000000f0: 6c08 68be 546b 6ebe 98b4 dfbd d61d 07be
00000100: 8826 8ebe 3aeb a83e 5cea ec3e a6bd 0a3f
00000110: 4f19 153f 9237 bfba 658e 233f ce6c 2cbe
00000120: c761 b63e 37d9 373f 2fa9 c53e ffd5 1a3e
00000130: c1b7 373e ba3b 493f d49f 16be 80dd d4bc
00000140: 2efc 0ebe 40ce f5bc d053 4bbd 0c5a 5f3e
00000150: 7532 333f 9bdf 7d3c bffe 89be 5be8 ea3e
00000160: b3a8 cf3c 4679 adbe a500 82be 10b5 98bd
00000170: 4602 4cbe 8026 383c 38bb 9abe 4002 d1bd
00000180: 3524 23be 2998 cf3d 5ac5 963f 7583 ed3e
00000190: b43b 383d 7e67 02bf dff1 a93c 744b 6cbe
000001a0: c105 77bd 438e 223e b625 fbbf 5a70 353d
000001b0: e477 063e 21b2 8c3e d97c 923e 11cf b63f
000001c0: f460 aabe 0fa8 19be ffd7 1a3f b59f 1d3f
000001d0: c330 4dbf 2518 cebd 4c90 ae3e 79a8 943e
000001e0: 34eb c43e 95b0 08bd f61c a93e fc71 dcbd
000001f0: 34bd d7bf ce46 223e f07b dd3d 80b2 38bb
00000200: d1ab 91be fc10 b9bd 6292 a0be 16a3 8cbe
00000210: 68ab 143d 2169 373d 7589 18bf eb5c 673f
00000220: af14 9d3d e723 89bf 17ad b83e b4a3 56bd
00000230: dcb5 ddbe 07a6 0540 a685 12bd 4972 67bd
00000240: 462e 0f3e 185d 953e 6e41 833e 507d 85be
00000250: babe c2bc 5191 92bf 3c35 b2be 7f4d 4e3e
00000260: 0258 ea3e f16f c53f 3412 57be a97a ebbe
00000270: 1032 b33d c5c6 18bf 0884 e43e 2665 903f
00000280: 1a4a 923e 966d 3d3f 5507 173f a0cb 103f
00000290: fb3f 6a3f 6fd3 9b3d 1983 7ebe b369 ea3d
000002a0: a19e 393f 5251 2f3f f51a 49bf 647a 8c3e
000002b0: 8604 913d ca2e 363e 29fb 80be 5f06 f9be
000002c0: bbc4 d53d 3a05 b6bf 144c 703e f672 80bd
000002d0: 23ac c5be 51d7 c1be f638 a4bd a999 9cbe
000002e0: 4fa9 96bd 7e5b b53d 482b 0d3f 4109 223f
000002f0: df41 853e 0cfb 97be 227a b7be c614 6e3e
00000300: 5e1d 483f 36bd 033f 1151 46bf bc72 39be
00000310: 5cc7 ad3c 9b37 c53e d371 d0be 089e 13bf
00000320: c55c 8c3d b0de 053f f8fd 2f3e 0fde 8a3f
00000330: 063b 343f 5878 b33e 9f55 a43d d263 c33e
00000340: 7684 893e e836 aabe de97 3d3f 7357 c63e
00000350: d222 cebe 668a bf3d 41f1 1fbe 88cb ac3e
00000360: 23eb 423f 5dc9 0f3e f0c0 4cbf ef5e 1d3d
00000370: 532d 17be ac0d 843e 34b8 c2be 0ef8 9a3e
00000380: a0f0 153d 805f 033c 9a53 85be 40d4 cf3c
00000390: 709f 2e3f fe5d 483f 29df 1cbf 79c6 fabe
000003a0: 7bcc bd3d 9166 183f 9f45 cebe 8b82 073e
000003b0: 1868 14be 4ffb c23f f208 8bbe 51af b7bd
000003c0: f19d 183f 89c8 b53e 967b adbe 2a4d ac3d
000003d0: e9a4 9dbd 95d6 2c3f dc31 093f a4b6 c13e
000003e0: 9344 603f b0e8 243e 571f 13bf f656 cdbe
000003f0: 15bf abbc 8528 ec3c d4eb d73e b633 38be

fc1.bias f4 [64]
0.5453446 -0.38724062 0.7177075 -0.4031119 0.645515 -0.13133366 -0.28476408 -0.26982218
0.8027908 0.28110212 -0.27509698 0.07923149 0.6947641 -0.36909524 0.14562903 -0.37465397
-0.33808726 0.7287121 -0.01852727 0.33971715 0.28175715 -0.33518624 -0.01982793 -0.25850013
-0.10997195 0.4251033 -0.1126046 0.6351839 0.26268145 0.14029998 -0.11532673 0.6708145
0.6970409 0.40232366 0.73265207 0.2123308 0.6202463 -0.2850477 0.03565586 0.47212282
0.23155896 0.93444705 0.46445075 0.16917059 -0.104917206 0.3411338 -0.3638352 0.70400006
-0.2327164 0.53967047 0.76133 -0.39744762 -0.21310596 0.87749046 0.13086693 -0.40105575
0.49707744 0.5177853 -0.4420383 0.8033657 0.77500266 0.94527775 0.3922717 0.08185808
00000000: b49b 0b3f 6744 c6be aebb 373f af64 cebe
00000010: 7940 253f 557c 06be 99cc 91be 2226 8abe
00000020: b383 4d3f 9eec 8f3e 83d9 8cbe 1f44 a23d
00000030: 0fdc 313f 0dfa bcbe c71f 153e a5d2 bfbe
00000040: c619 adbe e08c 3a3f 80c6 97bc 68ef ad3e
00000050: 7942 903e 889d abbe 2f6e a2bc 215a 84be
00000060: f938 e1bd 24a7 d93e 3e9d e6bd 699b 223f
00000070: 2f7e 863e ccaa 0f3e 6c30 ecbd 80ba 2b3f
00000080: 4671 323f 5efd cd3e 168f 3b3f 3f6d 593e
00000090: 76c8 1e3f c6f1 91be e10b 123d 15ba f13e
000000a0: cb1d 6d3e ec37 6f3f 7dcc ed3e 0e3b 2d3e
000000b0: d5de d6bd 17a9 ae3e 9b48 babe 5939 343f
000000c0: 354d 6ebe d827 0a3f 86e6 423f 417e cbbe
000000d0: 7338 5abe 37a3 603f fb01 063e 2e57 cdbe
000000e0: ef80 fe3e 948d 043f d852 e2be 60a9 4d3f
000000f0: 9366 463f b9fd 713f d6d7 c83e 36a5 a73d

fc2.weight f4 [64, 64]
0.04301408 -0.042186618 0.013045388 -0.06173648 0.083423145 -0.042405427 -0.069125116 -0.023852017
0.022682026 0.0109618865 -0.071946636 -0.08196796 -0.10649976 -0.05277872 -0.0118597 0.092806995
-0.06252317 -0.008062395 -0.06295271 -0.065118775 -0.07471313 -0.123524114 -0.078360066 -0.016423225
0.024562642 0.042670317 -0.09108108 -0.12770082 -0.06918335 -0.06740844 -0.06633778 0.060740735
0.0226682 -0.008455894 -0.09495777 -0.07990743 0.10073081 -0.10500635 -0.0026786923 -0.10996656
-0.13021837 0.008882224 -0.048532233 -0.11837891 -0.08819587 0.104985006 -0.058065385 0.087662995
0.11904712 -0.07345249 -0.022269955 0.09566968 -0.03932324 0.039591487 0.11462533 -0.118291125
0.02149566 0.11541815 -0.051021352 -0.1289802 -0.07315071 -0.081492186 0.010422087 0.014653996
0.25144807 0.027865991 0.32209456 -1.1873319 0.48587182 -0.05494421 -0.6656885 -0.4838946
0.25423637 0.47347185 -0.060545057 0.13970527 0.4034614 -0.061177135 -0.06462477 -0.010744795
-0.6696011 -1.9242812 -1.1097851 0.42389122 -0.8719663 0.041387632 -0.0807144 -0.99999577
-0.09646542 -0.735311 -0.38373208 0.43152213 0.4723366 -1.6376392 -0.07050335 0.47134268
0.51590294 0.19590823 0.13282639 0.4693727 0.47464642 -0.09255114 0.46828473 -0.65043664
0.62765414 0.27142715 -1.0161649 0.17944545 -0.71812 0.18989454 0.064948164 0.45696577
-0.064539894 0.1341729 0.2647278 -0.8031114 -0.6244515 0.4470774 -1.4615391 -0.56710947
0.52242345 0.2707223 -0.98379415 0.2519968 0.25289232 0.31680456 0.10885822 -0.14635529
0.0028498769 0.014549121 -0.11317854 0.06667034 -0.020428762 0.12205936 -0.06408803 -0.10079813
-0.069744095 0.059046835 -0.10552272 -0.1095722 0.09132601 0.071516424 0.023012638 0.087805256
-0.11902867 0.04880978 0.0033331662 -0.039963156 0.07092273 -0.11513077 0.11182517 -0.07663037
0.11671615 -0.019988447 -0.09744336 -0.06896089 0.047918886 0.032318756 0.08255726 0.061204627
-0.055791438 -0.08939935 -0.050035223 -0.092445135 -0.05895081 -0.075027645 -0.10241906 -0.007164821
-0.08889601 -0.03712383 0.041383356 -0.046654984 -0.079223916 -0.03985992 0.030008823 -0.006559938
0.078883216 0.08064373 0.10728559 0.10554829 -0.039484054 0.014280185 0.12427738 -0.095322445
0.029250592 -0.12094836 0.0037668198 -0.019016594 0.06685306 -0.11106351 0.06883569 -0.12313609
0.1721512 -0.03230013 -0.06307535 0.8442052 0.25188065 0.048427805 -0.14663416 0.047980145
0.14993247 -0.90547335 -0.0044931024 0.13798337 -0.36680415 -0.072393745 0.38800785 0.027634352
0.49356627 -1.1262193 0.5322505 -0.03550771 -1.0742927 0.068204165 0.5339451 0.32084024
0.42883813 0.49212617 -1.224092 0.21401203 0.22115067 0.79582846 -0.07866143 0.07433505
-0.1138077 -1.5790619 0.31704727 -0.070970915 0.41189817 0.05857946 -0.5869885 -0.17245552
-0.48589662 0.36042893 -0.06020162 0.6152553 0.7191448 0.21762727 0.03857013 -0.20262203
0.059569627 0.038913105 -0.036522113 -0.08819909 0.101227656 -0.931166 0.6894565 -0.7367771
-0.592515 -0.6617436 -0.690425 0.04417368 0.009331488 0.12767781 -0.030612323 0.50409025
00000000: 882f 303d e0cb 2cbd 53bc 553c 64df 7cbd
00000010: c1d9 aa3d 50b1 2dbd 7891 8dbd 4e65 c3bc
00000020: a8cf b93c 7c99 333c c258 93bd d1de a7bd
00000030: 8c1c dabd 802e 58bd 304f 42bc 9811 be3d
00000040: 260c 80bd 2318 04bc 5aed 80bd fe5c 85bd
00000050: 3303 99bd 36fa fcbd 3e7b a0bd 008a 86bc
00000060: 9837 c93c 12c7 2e3d b888 babd 01c4 02be
00000070: 00b0 8dbd 700d 8abd 1adc 87bd 47cb 783d
00000080: a9b2 b93c 978a 0abc 3879 c2bd 82a6 a3bd
00000090: f44b ce3d 920d d7bd 008d 2fbb 2636 e1bd
000000a0: f757 05be bf86 113c bcc9 46bd a470 f2bd
000000b0: 09a0 b4bd 6102 d73d f8d5 6dbd a888 b33d
000000c0: face f33d 426e 96bd 7b6f b6bc 77ee c33d
000000d0: 6811 21bd af2a 223d afc0 ea3d 9e42 f2bd
000000e0: ab17 b03c 5a60 ec3d c4fb 50bd 6313 04be
000000f0: 0ad0 95bd 60e5 a6bd 67c1 2a3c 5017 703c
00000100: cdbd 803e 3847 e43c 94e9 a43e 7efa 97bf
00000110: 31c4 f83e 2e0d 61bd 906a 2abf 08c1 f7be
00000120: 452b 823e e76a f23e 18fe 77bd e60e 0f3e
00000130: 7e92 ce3e e094 7abd fe59 84bd f00a 30bc
00000140: fa6a 2bbf d94e f6bf 700d 8ebf 4508 d93e
00000150: 2f39 5fbf 1486 293d 974d a5bd b9ff 7fbf
00000160: aa8f c5bd 573d 3cbf 8878 c4be 78f0 dc3e
00000170: 1ad6 f13e 299e d1bf 0f64 90bd d453 f13e
00000180: 3712 043f 2b9c 483e a403 083e 9e51 f03e
00000190: db04 f33e 748b bdbd 04c3 ef3e 0483 26bf
000001a0: f1ad 203f 80f8 8a3e b111 82bf 8cc0 373e
000001b0: b6d6 37bf b773 423e 8b03 853d 6bf7 e93e
000001c0: 7e2d 84bd 9f64 093e 678a 873e b598 4dbf
000001d0: 0edc 1fbf 54e7 e43e b713 bbbf 162e 11bf
000001e0: 8bbd 053f 1d9c 8a3e efd9 7bbf b905 813e
000001f0: 1a7b 813e 3534 a23e 0ff1 de3d 29de 15be
00000200: 00c5 3a3b 705f 6e3c 26ca e7bd 768a 883d
00000210: 385a a7bc 42fa f93d 9640 83bd 406f cebd
00000220: fed5 8ebd 18db 713d 4c1c d8bd 6467 e0bd
00000230: 2209 bb3d 3477 923d 0085 bc3c 3ed3 b33d
00000240: 4ec5 f3bd c4ec 473d 4071 5a3b 68b0 23bd
00000250: f03f 913d aec9 ebbd 9804 e53d 62f0 9cbd
00000260: e008 ef3d d0be a3bc 6290 c7bd 5e3b 8dbd
00000270: 9846 443d ac60 043d c813 a93d b4b1 7a3d
00000280: 9085 64bd 0217 b7bd bcf1 4cbd e053 bdbd
00000290: 6876 71bd 18a8 99bd 16c1 d1bd e0c6 eabb
000002a0: 1c0f b6bd 280f 18bd 9881 293d 4c19 3fbd
000002b0: 2640 a2bd 2844 23bd 10d5 f53c c0f4 d6bb
000002c0: 868d a13d 8a28 a53d 8cb8 db3d b429 d83d
000002d0: 08ba 21bd 70f7 693c 2485 fe3d 6a38 c3bd
000002e0: f09e ef3c c6b3 f7bd c0dc 763b b0c8 9bbc
000002f0: 42ea 883d 4475 e3bd baf9 8c3d c62e fcbd
00000300: 6748 303e 244d 04bd a62d 81bd d51d 583f
00000310: 80f6 803e 3c5c 463d 4427 16be d486 443d
00000320: e687 193e 1acd 67bf e03a 93bb 834b 0d3e
00000330: c1cd bbbe 2c43 94bd f7a8 c63e 7061 e23c
00000340: b8b4 fc3e f427 90bf 9241 083f 8870 11bd
00000350: 6c82 89bf a0ae 8b3d a0b0 083f 2c45 a43e
00000360: ac90 db3e f6f7 fb3e 0caf 9cbf f825 5b3e
00000370: 5275 623e 6abb 4b3f 3e19 a1bd fa3c 983d
00000380: 0314 e9bd b31e cabf 0554 a23e 3359 91bd
00000390: 51e4 d23e 04f1 6f3d e144 16bf 2e98 30be
000003a0: 71c7 f8be 248a b83e f995 76bd 5f81 1d3f
000003b0: e019 383f afd9 5e3e b6fb 1d3d 267c 4fbe
000003c0: 48ff 733d 5963 1f3d 3698 15bd b9a1 b4bd
000003d0: 7250 cf3d e560 6ebf 3980 303f 6d9d 3cbf
000003e0: 10af 17bf 0768 29bf b1bf 30bf 76ef 343d
000003f0: 19e3 183c f9bd 023e b2c6 fabc 0f0c 013f

fc2.bias f4 [64]
0.044808023 0.2400417 -0.07769953 0.25029147 0.26669636 0.030982107 0.07125547 0.08434725
-0.029775975 0.07832907 -0.14505836 -0.06352675 -0.08624126 0.023343712 -0.00595946 0.09249006
0.381716 0.017229334 0.19794406 -0.118488826 0.26363644 -0.11767253 0.2618531 -0.113695815
0.5089045 -0.15332113 0.32794496 0.33969924 -0.09834754 0.41600633 0.27253863 0.42271513
0.019011518 -0.11337163 0.09512584 -0.15674184 0.37338144 0.21403117 0.37653428 -0.064457506
0.24135984 0.36032987 0.03920497 0.33042204 -0.124325134 0.009086949 -0.0396232 -0.044611607
-0.037472647 0.4537541 0.05358909 -0.10991666 -0.07651718 0.42888528 0.09567035 0.121566266
0.068092115 0.46683326 0.109005645 0.026367363 0.17633048 0.16122137 -0.025972 -0.046346016
00000000: 9e88 373d 7ecd 753e ee20 9fbd 3426 803e
00000010: 6d8c 883e 30ce fd3c 63ee 913d 40be ac3d
00000020: bfec f3bc fe6a a03d 2e8a 14be 501a 82bd
00000030: 429f b0bd 503b bf3c 9347 c3bb 6e6b bd3d
00000040: 4870 c33e 8824 8d3c d9b1 4a3e 45aa f2bd
00000050: 5bfb 863e 4cfe f0bd 9c11 863e 5ad9 e8bd
00000060: 9147 023f 3700 1dbe 67e8 a73e 0fed ad3e
00000070: 6f6a c9bd c8fe d43e 2f8a 8b3e 1e6e d83e
00000080: 0bbe 9b3c 632f e8bd 56d1 c23d ef80 20be
00000090: da2b bf3e fd2a 5b3e 1ac9 c03e 4c02 84bd
000000a0: 0927 773e 287d b83e 6495 203d 142d a93e
000000b0: 2d9e febd 6de1 143c f04b 22bd a9ba 36bd
000000c0: eb7c 19bd 7552 e83e 3c80 5b3d fc1b e1bd
000000d0: 0ab5 9cbd da96 db3e d1ee c33d bcf7 f83d
000000e0: e173 8b3d c504 ef3e 5a3e df3d 5e00 d83c
000000f0: fa8f 343e 3717 253e 3bc3 d4bc 52d5 3dbd

fc3.weight f4 [5, 64]
0.06933971 0.47485304 -0.077563345 0.47223324 0.5021528 0.09778164 -0.07610218 -0.01073046
0.08813693 0.018053446 -0.9698959 0.06389357 0.08339079 0.09756456 -0.8386728 0.12316263
0.34477934 -0.07705948 -1.2325963 -0.114379115 0.28747776 -0.37648124 -0.12625773 -0.05273907
0.4149303 0.018123975 0.43836096 0.5199465 -0.0629046 0.4343575 0.55401325 0.524034
-0.23606797 0.07357237 -1.3690485 0.03122898 0.38470197 0.2591913 0.4311241 -0.07244158
0.44292834 0.52903754 0.085989505 0.47125655 -0.105214596 -0.042877838 -0.07307626 0.009659962
-0.6017569 0.5070495 0.02311836 -0.025908738 -0.027638465 0.5390686 -1.2638979 0.24942338
0.41600993 0.44054914 0.6390777 0.081491046 -1.1959684 0.13828996 -0.7942809 -0.09174174
-0.07217033 0.46129274 -0.08514051 0.48541978 0.31687167 -0.08268933 -0.052846394 0.11248799
0.019964904 -0.12076172 -1.0322413 0.053031206 -0.01795798 -0.11034104 -0.65191483 0.08730839
0.4433837 0.02420792 -1.2738305 0.031129137 0.59976375 -0.29194444 0.07941589 0.074141085
0.48978516 0.020525536 0.25907618 0.30998433 0.0011827961 0.30020767 0.48026925 0.5468622
-0.55294424 -0.06732351 -1.3156912 0.077085905 0.43838727 0.2551207 0.41602495 0.040449813
0.3622643 0.3498008 0.07313299 0.55887026 0.07530056 0.0021776194 -0.061985165 0.07511089
-0.6428523 0.38185728 0.10890589 0.12402645 -0.028509885 0.5152609 -0.4994277 -0.30334318
0.13449493 0.38309136 0.32588917 0.02623022 -1.175736 0.23913532 -0.5406195 -0.07585321
0.030994028 0.23527853 -0.0024759918 1.0635327 0.780978 -0.026039556 0.0097817 -0.0074745566
-0.07756629 -0.098368965 -0.2823701 -0.031166127 -0.0513935 -0.016231284 -0.6729796 0.100164294
0.3846108 0.053597867 -1.1052042 0.013283683 0.61571497 -0.61232257 -0.29087934 -0.06280136
0.37233603 -0.08908756 0.48849803 0.41180193 0.077932514 -0.022125764 0.39998034 0.7005909
-0.5684971 -0.106374756 -1.4778203 -0.044675384 0.17499584 0.40188685 0.65964395 0.08522093
0.043198783 0.8435138 0.020115828 0.35495123 -0.05701782 0.102251485 -0.09571463 -0.10500805
-0.39601415 0.5464811 -0.071710475 0.06187442 0.027717337 0.48495606 -1.1915809 -0.27965137
0.33959043 0.5296367 0.7417317 0.02560754 -0.8300043 -0.16510329 -0.37725455 0.11088647
0.004364024 0.61000866 0.1088385 0.5034784 -0.5583464 0.042033777 0.0221099 0.105980396
-0.0702541 0.033553988 -0.26897925 0.026613712 -0.062448066 0.060037732 -0.7850853 -0.10159658
0.46151677 -0.11621258 -1.6661224 0.12438969 0.24615274 0.014179742 1.1856216 -0.03037551
0.41230646 -0.07980324 0.47657007 0.3940271 -0.07951363 0.37760442 0.7218341 0.4904893
-1.0280769 -0.06075389 -0.88533384 -0.10307005 0.6106147 -0.3219385 0.45955148 -0.10458189
0.534717 -0.62467927 0.075933516 0.6844492 0.047704235 -0.06875184 0.11025211 0.054186143
-0.93503743 0.49328387 0.026671948 -0.108868375 0.10141891 0.23118857 0.3265178 -0.7836888
-0.1334624 0.30858034 -0.503671 -0.038964216 -1.1085585 1.4485587 -0.77497464 -0.0025669038
00000000: fa01 8e3d f01f f33e 88d9 9ebd 8ec8 f13e
00000010: 168d 003f be41 c83d 76db 9bbd d0ce 2fbc
00000020: 2281 b43d d2e4 933c 194b 78bf a2da 823d
00000030: cac8 aa3d eecf c73d 43b3 56bf b03c fc3d
00000040: eb86 b03e 5cd1 9dbd b7c5 9dbf 993f eabd
00000050: 4930 933e 26c2 c0be b549 01be ec04 58bd
00000060: bf71 d43e bb78 943c d970 e03e 371b 053f
00000070: 20d4 80bd 1b64 de3e d0d3 0d3f 1827 063f
00000080: cdbb 71be 1cad 963d fb3c afbf ebd3 ff3c
00000090: a8f7 c43e b9b4 843e 4cbc dc3e 405c 94bd
000000a0: 81c7 e23e 016f 073f 441b b03d 8a48 f13e
000000b0: c07a d7bd aca0 2fbd 02a9 95bd d144 1e3c
000000c0: bd0c 1abf ffcd 013f b762 bd3c 903e d4bc
000000d0: 106a e2bc 6600 0a3f 68c7 a1bf d868 7f3e
000000e0: 41ff d43e a88f e13e 999a 233f c7e4 a63d
000000f0: 7e15 99bf e29b 0d3e fe55 4bbf 18e3 bbbd
00000100: 0ace 93bd 902e ec3e 265e aebd f188 f83e
00000110: 013d a23e 0659 a9bd 7675 58bd 1a60 e63d
00000120: 708d a33c ec51 f7bd 7c20 84bf 4037 593d
00000130: 9d1c 93bc 7cfa e1bd e4e3 26bf bece b23d
00000140: 3003 e33e b04f c63c e10c a3bf 8802 ff3c
00000150: 1e8a 193f be79 95be cca4 a23d 48d7 973d
00000160: 1fc5 fa3e 2b25 a83c a2a5 843e 44b6 9e3e
00000170: 0d08 9b3a d2b4 993e dae5 f53e 29ff 0b3f
00000180: c18d 0dbf e9e0 89bd 9268 a8bf 37df 9d3d
00000190: 4c74 e03e 2e9f 823e 3901 d53e b4ae 253d
000001a0: b57a b93e 1719 b33e c0c6 953d 1f12 0f3f
000001b0: 2e37 9a3d 64b6 0e3b 28e4 7dbd bdd3 993d
000001c0: f891 24bf cc82 c33e 0d0a df3d 9401 fe3d
000001d0: 908d e9bc 23e8 033f fdb4 ffbe cc4f 9bbe
000001e0: 0ab9 093e 8d24 c43e f2da a63e c2e0 d63c
000001f0: 847e 96bf e4df 743e 0a66 0abf ee58 9bbd
00000200: 30e7 fd3c dbec 703e 4044 22bb d721 883f
00000210: 2dee 473f e850 d5bc 6c43 203c 20ed f4bb
00000220: 13db 9ebd ab75 c9bd d092 90be 1b50 ffbc
00000230: fe81 52bd 78f7 84bc 6448 2cbf f022 cd3d
00000240: b5eb c43e 7089 5b3d 5577 8dbf cea3 593c
00000250: 7f9f 1d3f 2cc1 1cbf 23ee 94be 009e 80bd
00000260: d4a2 be3e 8a73 b6bd 6a1c fa3e b4d7 d23e
00000270: 159b 9f3d 1741 b5bc 39ca cc3e ed59 333f
00000280: 0789 11bf 02db d9bd 3729 bdbf 89fd 36bd
00000290: 1c32 333e 1dc4 cd3e 6dde 283f 5088 ae3d
000002a0: 35f1 303d 85f0 573f f3c9 a43c 2bbc b53e
000002b0: 858b 69bd 3a69 d13d 0806 c4bd 760e d7bd
000002c0: 5ec2 cabe 2fe6 0b3f f1dc 92bd 0870 7d3d
000002d0: 780f e33c 294c f83e b985 98bf 772e 8fbe
000002e0: ccde ad3e 4596 073f 21e2 3d3f e7c6 d13c
000002f0: 297b 54bf d610 29be 8227 c1be 7218 e33d
00000300: 1600 8f3b 8729 1c3f b8e6 de3d f6e3 003f
00000310: caef 0ebf 9c2b 2c3d d21f b53c 400c d93d
00000320: 62e1 8fbd e86f 093d a6b7 89be 0005 da3c
00000330: 8bc9 7fbd 20ea 753d 5afb 48bf de11 d0bd
00000340: ed4b ec3e dc00 eebd 8043 d5bf 06c0 fe3d
00000350: 770f 7c3e 2652 683c 73c2 973f 10d6 f8bc
00000360: d519 d33e e26f a3bd fe00 f43e ecbd c93e
00000370: 0bd8 a2bd 5e55 c13e 1fca 383f 6a21 fb3e
00000380: 0698 83bf 12d9 78bd 3da5 62bf 6416 d3bd
00000390: 3f51 1c3f 20d5 a4be 554a eb3e 082f d6bd
000003a0: 37e3 083f fbea 1fbf 0883 9b3d 1038 2f3f
000003b0: 8465 433d c4cd 8cbd dccb e13d 4af2 5d3d
000003c0: 9d5e 6fbf b48f fc3e 217f da3c 62f6 debd
000003d0: b8b4 cf3d b2bc 6c3e 572d a73e d49f 48bf
000003e0: 5eaa 08be 3efe 9d3e 95f0 00bf f198 1fbd
000003f0: 3fe5 8dbf 5f6a b93f bd64 46bf 8039 28bb

fc3.bias f4 [5]
0.42293546 0.17093764 -0.035562105 0.19061214 0.2085784
00000000: ff8a d83e 470a 2f3e 92a9 11bd d42f 433e
00000010: 9395 553e
