dqn_solution_analysis/dqn_policy_2_planes_200_episodes_no_collision_penalties.pth (torch, 23509 bytes, 6 tensors)

fc1.weight f4 [64, 6]
0.90461373 0.04756054 0.60231894 0.19369395 0.42891285 -0.29796886 -0.27402318 0.19426036
-0.38108784 0.40350014 0.086898565 0.052722216 0.26478302 0.46971294 0.5234711 -0.13648897
0.480873 0.11491754 -0.35864696 0.69895124 0.6954854 -0.3985107 -0.1917357 0.25178453
0.96854275 -0.050863497 0.07641824 0.22007611 -0.12495484 -0.030475803 -0.23529491 -0.14624226
-0.70273024 -0.2250969 0.65732664 -0.07485626 0.36565268 -0.11621552 -0.10024589 1.3507589
0.20942612 -0.04851889 -0.61884654 0.30119503 0.67611766 0.63306874 0.5508283 0.018897079
0.8795828 0.21018645 0.48926246 0.09521518 -0.083587565 -0.33830848 0.8193151 0.4882677
0.5942318 -0.4317356 -0.12628636 0.3511116 -0.22659463 -0.2328313 -0.109231174 -0.13194975
-0.27763772 0.32991964 0.6861401 0.54989076 0.4752134 -0.6163243 0.378821 -0.2837797
0.48787364 0.59485996 0.6441482 0.3100696 0.29596147 0.3823133 -0.14709407 -0.025984526
-0.13963386 -0.030005574 -0.049640477 0.21811694 0.23740636 -0.508591 -0.22479269 -0.79600245
0.2643044 -0.14878702 -0.25391117 -0.0745641 -0.19922742 0.011239648 -0.30220962 -0.10205507
-0.17041773 0.026889596 0.72454035 1.1293006 0.12026718 -0.5196117 -0.33065087 -0.5326871
-0.40866372 -1.3384935 0.10786271 0.04301537 0.010358725 -0.07848252 -0.16900048 0.33102518
-0.4088134 -0.0076675597 0.7326234 0.56663424 -0.21130069 -0.26679376 0.4249173 0.10500452
0.101928234 -0.2688395 0.08774193 -0.751067 -0.4057305 0.37807697 0.10814655 -0.0028182566
-0.28451398 -0.09036443 -0.3136168 -0.27468175 -0.04590365 0.24172638 -0.40862963 0.7138197
0.50362146 -0.27569234 0.520706 0.1725483 -0.35421243 2.1646974 0.011317145 -0.17572273
-0.32307884 0.27494448 0.9062538 0.054149576 -0.038320325 -0.10800911 -0.7303406 0.13398163
0.47587618 0.669066 -0.28135732 -0.2875212 -0.124058776 -0.43979222 -0.069386534 0.16200575
-0.0042426605 0.19553083 0.61334026 0.44023725 0.6611694 -0.10216106 0.121760786 -0.1535784
0.7952693 0.589846 -0.37478828 0.34900248 0.16458972 -0.049142364 -0.3767735 -0.4972129
-0.032934323 -1.9494443 0.05217828 0.025770128 -0.16030912 -0.028548239 -0.05490344 -2.2212143
0.07656818 -0.17447695 0.6891557 0.5956084 0.28882352 -0.21255043 -0.097768776 -0.0611879
0.9119281 0.5051462 -0.05097607 -0.12480968 0.15571745 0.13769938 -0.29354864 -0.102047384
-0.22130832 0.25809798 -0.98555917 -0.002474245 0.86610186 0.32943654 0.43918958 0.30315012
0.30299136 -0.4538694 0.38690412 0.41925284 -0.83495754 0.63683283 -0.43950868 0.42190698
0.8343723 0.0051207677 -0.36221284 -0.025404895 -0.058256265 0.08523653 -0.3803116 0.30267376
0.03660643 0.008018374 -0.26040345 0.025369763 0.82440937 0.6882792 -0.17529127 -0.330169
0.17993118 0.19246103 -0.5856881 0.13136849 -0.28180036 1.4211141 0.02760244 -0.01092205
0.78828615 0.32475144 0.12777412 0.21347754 0.0360532 0.26900864 0.56614006 0.3598605
0.27429074 -0.38577482 -0.15686566 -0.3981708 0.5394336 0.37481856 0.48088273 -0.401958
00000000: c494 673f d7ce 423d 9331 1a3f b557 463e
00000010: 779a db3e 608f 98be c44c 8cbe 30ec 463e
00000020: f21d c3be 9297 ce3e e0f7 b13d 40f3 573d
00000030: a491 873e 377e f03e 3402 063f c4c3 0bbe
00000040: fc34 f63e e359 eb3d 93a0 b7be 78ee 323f
00000050: 550b 323f 9809 ccbe 5d56 44be e7e9 803e
00000060: 6bf2 773f 3e56 50bd 2b81 9c3d a25b 613e
00000070: 53e8 ffbd 64a8 f9bc 26f1 70be 88c0 15be
00000080: 21e6 33bf cd7f 66be 8f46 283f 3d4e 99bd
00000090: d436 bb3e 6702 eebd b84d cdbd abe5 ac3f
000000a0: cd73 563e bebb 46bd ba6c 1ebf 3c36 9a3e
000000b0: 0c16 2d3f cb10 223f 1503 0d3f 0cce 9a3c
000000c0: 572c 613f 1e3b 573e 9c80 fa3e 2d00 c33d
000000d0: f52f abbd c536 adbe a2be 513f 39fe f93e
000000e0: 931f 183f 730c ddbe 3651 01be e6c4 b33e
000000f0: 6c08 68be 546b 6ebe 98b4 dfbd d61d 07be
00000100: 8826 8ebe 3aeb a83e e1a6 2f3f a4c5 0c3f
00000110: 2c4f f33e 6ec7 1dbf d3f4 c13e 934b 91be
00000120: 93ca f93e be48 183f e5e6 243f 71c1 9e3e
00000130: 4388 973e 92be c33e d49f 16be 80dd d4bc
00000140: 2efc 0ebe 40ce f5bc d053 4bbd 0c5a 5f3e
00000150: a71a 733e 0533 02bf 0e30 66be d1c6 4bbf
00000160: e852 873e a05b 18be a500 82be 10b5 98bd
00000170: 4602 4cbe 8026 383c 38bb 9abe 4002 d1bd
00000180: fc81 2ebe 9247 dc3c 7a7b 393f ec8c 903f
00000190: a44e f63d 4605 05bf 124b a9be 2f5e 08bf
000001a0: 5f3c d1be c153 abbf 20e7 dc3d e230 303d
000001b0: a4b7 293c 72bb a0bd 760e 2dbe 227c a93e
000001c0: fd4f d1be 2740 fbbb 358d 3b3f f10e 113f
000001d0: 355f 58be 3199 88be c38e d93e 9c0c d73d
000001e0: c0bf d03d 55a5 89be 0ab2 b33d ed45 40bf
000001f0: e8bb cfbe 4e93 c13e f07b dd3d 80b2 38bb
00000200: d1ab 91be fc10 b9bd 6292 a0be 16a3 8cbe
00000210: 7705 3cbd 1f87 773e e737 d1be e3bc 363f
00000220: 56ed 003f 8c27 8dbe fd4c 053f 80b0 303e
00000230: 555b b5be 678a 0a40 8c6b 393c a9f0 33be
00000240: 976a a5be 86c5 8c3e 4000 683f f2cb 5d3d
00000250: c6f5 1cbd e133 ddbd 9af7 3abf 7b32 093e
00000260: 0ba6 f33e e947 2b3f 110e 90be fb35 93be
00000270: 8712 febd 722c e1be 871a 8ebd d6e4 253e
00000280: 0406 8bbb 3c39 483e de03 1d3f c766 e13e
00000290: 6642 293f d139 d1bd b85d f93d a843 1dbe
000002a0: c596 4b3f 2600 173f 40e4 bfbe 74b0 b23e
000002b0: 358a 283e 8149 49bd 75e8 c0be b092 febe
000002c0: 24e6 06bd 6487 f9bf e4b8 553d e01b d33c
000002d0: 1328 24be ffdd e9bc 6ee2 60bd 6028 0ec0
000002e0: c7cf 9c3d 16aa 32be 826c 303f cb79 183f
000002f0: ade0 933e d2a6 59be ff3a c8bd 2aa0 7abd
00000300: 1f74 693f 4351 013f 49cc 50bd 389c ffbd
00000310: 6574 1f3e 1101 0d3e 024c 96be 38fe d0bd
00000320: a69e 62be 6b25 843e 9b4d 7cbf f126 22bb
00000330: dab8 5d3f e8ab a83e 75dd e03e 7e36 9b3e
00000340: af21 9b3e 9261 e8be 4c18 c63e 4fa8 d63e
00000350: c7bf 55bf 7a07 233f 4807 e1be 3104 d83e
00000360: 6c99 553f 1dcc a73b f673 b9be ed1d d0bc
00000370: 1f9e 6ebd 7d90 ae3d 34b8 c2be 0ef8 9a3e
00000380: a0f0 153d 805f 033c 9a53 85be 40d4 cf3c
00000390: 7e0c 533f 1133 303f 8e7f 33be e90b a9be
000003a0: e13f 383e 8114 453e a8ef 15bf 7685 063e
000003b0: 2348 90be 11e7 b53f 831e e23c 66f2 32bc
000003c0: 1fcd 493f d245 a63e 38d7 023e db99 5a3e
000003d0: 85ac 133d 80bb 893e 8eee 103f a33f b83e
000003e0: d66f 8c3e 4784 c5be 64a1 20be 0bdd cbbe
000003f0: 5218 0a3f 38e8 bf3e 4336 f63e 70cd cdbe

fc1.bias f4 [64]
0.45477438 -0.38724062 0.60327756 -0.35089272 0.5419548 -0.030736735 -0.42179558 -0.22255203
0.5177787 0.29780465 -0.27509698 0.084400244 0.575514 -0.36909524 -0.18073669 -0.37465397
-0.29938555 0.5379361 -0.1887825 0.2696274 -0.12316321 -0.33518624 -0.035373826 -0.09222737
-0.40991697 0.41797 -0.30685228 0.41715944 0.1390663 0.4384196 0.20867231 0.5572797
0.64947283 0.73402494 0.60842466 -0.19993849 0.49443915 -0.2850477 0.035496406 0.4581533
0.22110496 0.6325959 0.5946341 0.12310393 0.058480643 0.19791548 -0.38185146 0.6736974
-0.2327164 0.4176857 0.6204393 -0.41576678 -0.17686239 0.6503273 0.061550528 -0.38571098
0.42095852 0.5059869 -0.4460082 0.58616525 0.7155974 0.705898 0.24208605 0.23620902
00000000: 30d8 e83e 6744 c6be 6670 1a3f 36a8 b3be
00000010: 8dbd 0a3f 9bcb fbbc 97f5 d7be aee4 63be
00000020: 258d 043f da79 983e 83d9 8cbe 09da ac3d
00000030: e354 133f 0dfa bcbe 0a13 39be a5d2 bfbe
00000040: 1049 99be 2eb6 093f 3350 41be 9a0c 8a3e
00000050: fe3c fcbd 889d abbe 25e4 10bd b4e1 bcbd
00000060: a3e0 d1be 2a00 d63e be1b 9dbe ec95 d53e
00000070: 6567 0e3e 8978 e03e 32ae 553e e2a9 0e3f
00000080: da43 263f 0fe9 3b3f b8c1 1b3f adbc 4cbe
00000090: 2127 fd3e c6f1 91be ae64 113d 1293 ea3e
000000a0: 5769 623e cef1 213f f139 183f ea1d fc3d
000000b0: 6689 6f3d 5baa 4a3e 0982 c3be 6f77 2c3f
000000c0: 354d 6ebe e6da d53e 1cd5 1e3f 62df d4be
000000d0: 6a1b 35be da7b 263f 681c 7c3d e97b c5be
000000e0: e087 d73e 5c88 013f 305b e4be ed0e 163f
000000f0: 6431 373f bbb5 343f 68e5 773e c7e0 713e

fc2.weight f4 [64, 64]
0.035252765 -0.042186618 0.012144564 -0.06173648 0.07557198 -0.042405427 -0.078328796 -0.010548339
0.019625396 0.012377857 -0.071946636 -0.08587988 -0.104490444 -0.05277872 -0.004343379 0.092806995
-0.06252317 -0.009679251 -0.06295271 -0.059191454 -0.06774367 -0.123524114 -0.078360066 -0.016423225
0.03333931 0.03946229 -0.09108108 -0.13015717 -0.07842837 -0.06740844 -0.06633778 0.05966726
0.020812826 -0.0031323659 -0.09992817 -0.07990743 0.10870327 -0.10500635 -0.0010639466 -0.12126686
-0.122056596 0.0067516724 -0.048011247 -0.11837891 -0.08245279 0.09976191 -0.058065385 0.085697755
0.11904712 -0.09007935 -0.023853598 0.11134864 -0.05049816 0.04171872 0.113961995 -0.118291125
0.022979146 0.11627805 -0.044388242 -0.13225333 -0.07727649 -0.08365114 0.019278938 0.014653996
0.35053968 0.027865991 0.31282553 -0.7714236 0.37652132 -0.56000704 -0.5189127 -0.7509043
0.2703559 0.44892967 -0.060545057 0.35038444 0.33082452 -0.061177135 -0.5117806 -0.010744795
-0.3947937 -1.1960794 -0.11378067 0.35980704 -0.7479755 0.041387632 -0.40767685 -0.5678127
-0.7421156 -0.8354486 -0.013700221 0.41919652 0.30143887 -1.0977143 -0.30954137 0.40414134
0.43206847 -2.5463629 0.15974283 -0.80893564 0.29838857 -0.09255114 0.42352116 -1.4762342
0.45375642 0.3013802 0.40124497 -0.4608595 -0.45257393 0.23498072 0.009877965 0.48446032
-0.064539894 0.19794175 0.13371804 -0.79927623 -0.5056038 0.3615614 -0.45080665 -1.0196071
0.45613897 0.2881952 -1.498805 0.25114647 0.3055226 0.30245912 -1.2567345 -0.42263675
-0.015839322 0.014549121 -0.13248141 0.047355186 -0.03928706 0.12205936 -0.06408803 -0.119652644
-0.08891003 0.03972156 -0.10552272 -0.12879999 0.07201452 0.071516424 0.023012638 0.087805256
-0.11902867 0.029522404 0.0033331662 -0.05916021 0.051630195 -0.11513077 0.11182517 -0.07663037
0.09811865 -0.019988447 -0.09744336 -0.08820278 0.047918886 0.013050876 0.06336087 0.041903317
-0.07508712 -0.10835623 -0.06863335 -0.092445135 -0.07782919 -0.075027645 -0.121600874 -0.007164821
-0.10799601 -0.056388795 0.022058854 -0.046654984 -0.09854514 -0.03985992 0.030008823 -0.025881514
0.078883216 0.06292739 0.08862395 0.08633547 -0.039484054 -0.0050294134 0.10495212 -0.11449591
0.009936156 -0.14023177 -0.01492728 -0.03825102 0.047593538 -0.13035019 0.049748924 -0.12313609
-0.057082124 -0.03230013 -0.027651241 -0.04759112 -0.087799884 0.048427805 -0.14489916 0.06384467
-0.09897877 -0.10475434 -0.0044931024 0.022405818 -0.10486924 -0.072393745 -0.11474228 0.027634352
0.057043143 0.046069704 0.115658775 0.056581452 -0.06284776 0.068204165 0.02879286 0.012192109
-0.09391645 0.07464858 -0.038719237 -0.025030427 0.08213632 -0.09408949 -0.07866143 -0.027581183
-0.13035534 -0.10890363 0.08623008 0.05250722 0.11021705 0.05857946 0.08759479 -0.026194045
-0.027590677 -0.082465164 0.055567473 0.06493098 -0.0007017553 -0.009601134 -0.044659123 -0.050043166
0.059569627 -0.08820853 -0.0763131 -0.09507054 0.032917686 -0.0765098 -0.024238318 -0.08016436
0.056999847 -0.10586941 -0.13326904 -0.14489503 -0.11435117 -0.06312185 -0.08043655 -0.032140374
00000000: 3465 103d e0cb 2cbd fef9 463c 64df 7cbd
00000010: 7bc5 9a3d 50b1 2dbd d96a a0bd f1d2 2cbc
00000020: 70c5 a03c 7fcc 4a3c c258 93bd cae1 afbd
00000030: 16ff d5bd 802e 58bd e752 8ebb 9811 be3d
00000040: 260c 80bd b995 1ebc 5aed 80bd bd72 72bd
00000050: 31bd 8abd 36fa fcbd 3e7b a0bd 008a 86bc
00000060: cd8e 083d 36a3 213d b888 babd ec47 05be
00000070: 0e9f a0bd 700d 8abd 1adc 87bd a865 743d
00000080: a97f aa3c 6148 4dbb 24a7 ccbd 82a6 a3bd
00000090: d29f de3d 920d d7bd 2074 8bba c25a f8bd
000000a0: cff8 f9bd 223d dd3b 71a7 44bd a470 f2bd
000000b0: 02dd a8bd f94f cc3d f8d5 6dbd 4e82 af3d
000000c0: face f33d 867b b8bd 9f68 c3bc c10a e43d
000000d0: 29d7 4ebd 40e1 2a3d e864 e93d 9e42 f2bd
000000e0: c33e bc3c 3023 ee3d 72d0 35bd 6b6d 07be
000000f0: 2343 9ebd 4a51 abbd ddee 9d3c 5017 703c
00000100: f079 b33e 3847 e43c ab2a a03e 047c 45bf
00000110: 67c7 c03e 9f5c 0fbf 76d7 04bf 443b 40bf
00000120: 176c 8a3e 1cda e53e 18fe 77bd 9765 b33e
00000130: d561 a93e e094 7abd 0e04 03bf f00a 30bc
00000140: 6622 cabe 2119 99bf d705 e9bd a138 b83e
00000150: 537b 3fbf 1486 293d 05bb d0be 2c5c 11bf
00000160: 4afb 3dbf f6df 55bf e476 60bc eda0 d63e
00000170: 3256 9a3e e781 8cbf 357c 9ebe 9deb ce3e
00000180: 1438 dd3e 9cf7 22c0 a093 233e 6816 4fbf
00000190: 63c6 983e 748b bdbd c4d7 d83e 3ef5 bcbf
000001a0: c352 e83e 814e 9a3e fb6f cd3e c7f5 ebbe
000001b0: c5b7 e7be c99e 703e 30d7 213c 2f0b f83e
000001c0: 7e2d 84bd 3eb1 4a3e 62ed 083e 5e9d 4cbf
000001d0: 406f 01bf 931e b93e 21d0 e6be 7c82 82bf
000001e0: 0c8b e93e 528e 933e d8d8 bfbf 4596 803e
000001f0: 756d 9c3e ecdb 9a3e addc a0bf d863 d8be
00000200: 77c1 81bc 705f 6e3c 35a9 07be 83f7 413d
00000210: 78eb 20bd 42fa f93d 9640 83bd 720c f5bd
00000220: 7616 b6bd 13b3 223d 4c1c d8bd 25e4 03be
00000230: 597c 933d 3477 923d 0085 bc3c 3ed3 b33d
00000240: 4ec5 f3bd f8d8 f13c 4071 5a3b fa51 72bd
00000250: 2f7a 533d aec9 ebbd 9804 e53d 62f0 9cbd
00000260: 6ef2 c83d d0be a3bc 6290 c7bd a9a3 b4bd
00000270: 9846 443d 57d3 553c 58c3 813d d0a2 2b3d
00000280: 47c7 99bd dfe9 ddbd a48f 8cbd e053 bdbd
00000290: e964 9fbd 18a8 99bd e109 f9bd e0c6 eabb
000002a0: 032d ddbd f0f7 66bd c5b4 b43c 4c19 3fbd
000002b0: 09d2 c9bd 2844 23bd 10d5 f53c 7805 d4bc
000002c0: 868d a13d 13e0 803d 7980 b53d a7d0 b03d
000002d0: 08ba 21bd c7cd a4bb 23f1 d63d d57c eabd
000002e0: 42cb 223c eb98 0fbe 8d91 74bc 1aad 1cbd
000002f0: 71f1 423d 857a 05be 87c5 4b3d c62e fcbd
00000300: f2ce 69bd 244d 04bd db84 e2bc e8ee 42bd
00000310: 6dd0 b3bd 3c5c 463d 7260 14be ffc0 823d
00000320: 62b5 cabd 7289 d6bd e03a 93bb 688c b73c
00000330: afc5 d6bd 2c43 94bd 00fe eabd 7061 e23c
00000340: 12a6 693d 96b3 3c3d 82de ec3d f4c1 673d
00000350: 54b6 80bd a0ae 8b3d 01df eb3c 69c1 473c
00000360: 4557 c0bd 5be1 983d 1098 1ebd 9c0c cdbc
00000370: 1637 a83d feb1 c0bd 3e19 a1bd eff1 e1bc
00000380: df7b 05be de08 dfbd 6599 b03d d011 573d
00000390: 7ab9 e13d 04f1 6f3d e664 b33d e594 d6bc
000003a0: d805 e2bc 7fe3 a8bd b89a 633d 89fa 843d
000003b0: 00f6 37ba 134e 1dbc 7cec 36bd 10fa 4cbd
000003c0: 48ff 733d aca6 b4bd 0b4a 9cbd 58b4 c2bd
000003d0: b2d4 063d 2cb1 9cbd 708f c6bc 362d a4bd
000003e0: ac78 693d 10d2 d8bd ae77 08be 5d5f 14be
000003f0: f230 eabd 0746 81bd ebbb a4bd a0a5 03bd

fc2.bias f4 [64]
0.0432779 0.16644317 -0.09701502 -0.038948443 0.394617 0.004959411 0.23522025 0.08434725
-0.026890194 0.086545445 -0.10594025 -0.09932504 0.060470123 -0.006108818 0.008036936 0.09249006
-0.13032174 0.08433054 0.17087334 -0.110003665 0.25013235 0.10749538 0.10984314 -0.113695815
-0.02193526 -0.1436704 0.39112476 0.06425041 0.045359526 0.22875214 -0.13439213 0.31229368
0.012841267 -0.11161562 0.28427285 -0.06646365 0.07797608 0.17753184 0.3616117 -0.064457506
-0.098902345 0.2176339 0.26027238 0.25241473 -0.101919636 0.017294735 -0.0396232 0.20416829
0.09870792 0.39423093 0.05364784 -0.10991666 -0.07651718 0.2301168 -0.003485764 0.07429667
0.28188005 0.2717958 -0.07716156 0.022989774 0.41121265 0.0055071088 0.1550847 -0.048340693
00000000: 2b44 313d 1470 2a3e d0af c6bd 6788 1fbd
00000010: 3d0b ca3e 8e82 a23b 94dd 703e 40be ac3d
00000020: d348 dcbc bd3e b13d 34f7 d8bd ed6a cbbd
00000030: 85af 773d 7b2c c8bb 5aad 033c 6e6b bd3d
00000040: 1073 05be 7db5 ac3d 6cf9 2e3e 9a49 e1bd
00000050: 5911 803e 8a26 dc3d 71f5 e03d 5ad9 e8bd
00000060: 93b1 b3bc 551e 13be 8141 c83e b895 833d
00000070: e9ca 393d 003e 6a3e 179e 09be f5e4 9f3e
00000080: 2d64 523c bb96 e4bd 368c 913e 181e 88bd
00000090: ecb1 9f3d e8ca 353e 2b25 b93e 4c02 84bd
000000a0: 508d cabd 6cdb 5e3e 6c42 853e 813c 813e
000000b0: 3ebb d0bd b0ad 8d3c f04b 22bd 7e11 513e
000000c0: 6127 ca3d a3d8 c93e d6bd 5b3d fc1b e1bd
000000d0: 0ab5 9cbd bda3 6b3e 6a71 64bb da28 983d
000000e0: 9552 903e d228 8b3e e106 9ebd 0d55 bc3c
000000f0: 778a d23e fa74 b43b 86ce 1e3e e400 46bd

fc3.weight f4 [5, 64]
0.085836425 0.42986125 -0.077563345 0.04769388 0.5066028 0.09778164 0.10743616 -0.01073046
0.08813693 0.018053446 -0.03068684 -0.30654708 0.6257071 0.09756456 -0.03957735 0.12316263
-0.022755047 0.106853105 0.05301559 0.48307732 0.44019505 -0.38592884 -0.05901822 -0.05273907
-0.011981204 0.010258239 0.26622772 0.28240815 0.451863 -0.502035 -0.05664114 0.49636018
-0.04361185 0.06921439 0.34575167 0.100115694 -0.06700357 0.057629928 0.37824157 -0.07244158
0.036206793 0.20785269 0.3646865 0.3648216 -0.105214596 -0.042877838 -0.07307626 0.5019624
-0.09802236 0.40904683 -0.014518903 -0.025908738 -0.027638465 0.46040973 -0.10942719 0.07176479
0.5401243 0.46805212 -0.0018809387 0.10479632 0.4212921 0.010047142 0.30213946 -0.09174174
-0.06423318 0.5356607 -0.068143964 0.055961557 0.36055514 -0.05844398 0.22673306 0.11248799
-0.003847586 -0.12076172 0.021172363 0.186948 0.2622086 -0.08092589 -0.03865927 0.08730839
0.094890654 -0.045527764 -0.013401911 0.5085315 0.5510753 -0.16956545 0.14343132 0.074141085
0.117538854 -0.02709454 0.2822137 -0.07481044 0.19252346 -0.22310662 -0.032759324 0.43825412
-0.08219265 -0.069447875 0.4354878 0.20471533 -0.038773786 -0.016462047 0.3667308 0.040449813
-0.0905358 0.1688108 0.07467678 0.5632431 0.07530056 0.010438162 -0.061985165 0.56769454
-0.26238903 0.34213227 0.13659085 0.12402645 -0.028509885 0.50697076 -0.087443404 -0.08492643
0.46728447 0.41965413 0.07434537 0.038945798 0.47024214 0.055475727 0.100972876 -0.07585321
0.030994028 0.35641348 -0.0024759918 -0.047511563 0.60225993 -0.026039556 0.1395798 -0.0074745566
-0.09400253 -0.101660304 0.10373012 -0.7329062 0.3808254 -0.016231284 -0.0894528 0.100164294
-0.021452732 0.31278118 0.431253 -0.20833749 0.5431983 -0.4733937 -0.51755756 -0.06280136
0.09241426 -0.08978375 0.31590605 0.41629758 0.6270742 -0.44231316 0.020914203 0.5360611
-0.1044131 -0.106860854 0.4762095 0.21762003 -0.04859606 0.646697 0.36555976 0.08522093
-0.074779145 0.3226631 1.0634509 0.319591 -0.078880556 0.102251485 -0.09571463 0.31881407
-0.41352686 0.4044231 -0.07194951 0.06187442 0.027717337 0.20048884 -0.042417236 -0.017997213
0.45590773 0.4798325 -0.21474661 0.021481883 0.47324005 -0.028588325 0.45167696 0.1092298
0.02355429 0.57228494 0.1088385 0.10475622 0.31161848 0.042033777 0.36162135 0.105980396
-0.0702541 0.033553988 -0.070482284 1.0169609 -0.17804296 0.060037732 -0.026833052 -0.10159658
0.09441757 -0.42389005 -0.47974417 1.1798538 0.53942955 -0.663049 0.4822642 -0.03037551
0.005995352 -0.0626871 0.4462858 -0.31056535 -0.3061407 -0.65640444 0.094857566 0.38668737
-0.06037883 -0.06322457 0.4823625 -0.37419933 0.07881981 0.0152986515 0.4390096 -0.10458189
0.09361227 -0.24829601 -0.95820206 0.5572389 0.047704235 -0.06875184 0.11025211 0.5218436
0.9341034 0.44485554 0.028063538 -0.108868375 0.10141891 0.44348124 0.016597321 -0.097012304
0.30769092 0.29910004 0.16247241 -0.008292326 0.30153087 0.118947506 -0.11833645 -0.0025669038
00000000: 02cb af3d c616 dc3e 88d9 9ebd a85a 433d
00000010: b9b0 013f be41 c83d 7d07 dc3d d0ce 2fbc
00000020: 2281 b43d d2e4 933c f862 fbbc bdf3 9cbe
00000030: 572e 203f eecf c73d dc1b 22bd b03c fc3d
00000040: cb68 babc cdd5 da3d e026 593d e955 f73e
00000050: 3f61 e13e 7798 c5be 17bd 71bd ec04 58bd
00000060: d04c 44bc 2c12 283c 004f 883e cd97 903e
00000070: 965a e73e 5e85 00bf 8a00 68bd ec22 fe3e
00000080: 57a2 32bd 46c0 8d3d 5d06 b13e 7509 cd3d
00000090: 2b39 89bd 5c0d 6c3d e1a8 c13e 405c 94bd
000000a0: 934d 143d 56d7 543e 30b8 ba3e e6c9 ba3e
000000b0: c07a d7bd aca0 2fbd 02a9 95bd 9c80 003f
000000c0: f2bf c8bd 966e d13e b1e0 6dbc 903e d4bc
000000d0: 106a e2bc d3ba eb3e 5d1b e0bd 6bf9 923d
000000e0: 9645 0a3f 87a4 ef3e d489 f6ba 749f d63d
000000f0: 99b3 d73e c59c 243c 06b2 9a3e 18e3 bbbd
00000100: af8c 83bd 0f21 093f 108f 8bbd f237 653d
00000110: af9a b83e f462 6fbd b62c 683e 1a60 e63d
00000120: c827 7cbb ec51 f7bd aa71 ad3c 4c6f 3f3e
00000130: 3540 863e 79bc a5bd 2f59 1ebd bece b23d
00000140: 0856 c23d 527b 3abd b093 5bbc 1f2f 023f
00000150: 4513 0d3f 91a2 2dbe a9df 123e 48d7 973d
00000160: 36b8 f03d 5ef5 ddbc 507e 903e 3736 99bd
00000170: df24 453e 1076 64be a42e 06bd d862 e03e
00000180: 9f54 a8bd b03a 8ebd 42f8 de3e e5a0 513e
00000190: 43d1 1ebd 6adb 86bc 24c4 bb3e b4ae 253d
000001a0: d56a b9bd bddc 2c3e 24f0 983d b330 103f
000001b0: 2e37 9a3d d304 2b3c 28e4 7dbd 6e54 113f
000001c0: db57 86be f62b af3e 79de 0b3e 9401 fe3d
000001d0: 908d e9bc d6c8 013f 8715 b3bd e8ed adbd
000001e0: e93f ef3e e8dc d63e 6342 983d a185 1f3d
000001f0: 94c3 f03e 843a 633d deca ce3d ee58 9bbd
00000200: 30e7 fd3c d47b b63e 4044 22bb 7c9b 42bd
00000210: b52d 1a3f e850 d5bc 02ee 0e3e 20ed f4bb
00000220: 6684 c0bd 4733 d0bd 7570 d43d be9f 3bbf
00000230: 8cfb c23e 78f7 84bc 0833 b7bd f022 cd3d
00000240: a4bd afbc db24 a03e 31cd dc3e 6c56 55be
00000250: 0b0f 0b3f a960 f2be a77e 04bf 009e 80bd
00000260: b043 bd3d 8be0 b7bd 70be a13e f524 d53e
00000270: ef87 203f df76 e2be 4354 ab3c 4d3b 093f
00000280: 89d6 d5bd ddd9 dabd bbd1 f33e c9d7 5e3e
00000290: aa0c 47bd ef8d 253f a62a bb3e 5088 ae3d
000002a0: cf25 99bd 1934 a53e 291f 883f 6ea1 a33e
000002b0: 218c a1bd 3a69 d13d 0806 c4bd 993b a33e
000002c0: cbb9 d3be 8b10 cf3e 445a 93bd 0870 7d3d
000002d0: 780f e33c f24c 4d3e b2bd 2dbd e46e 93bc
000002e0: bd6c e93e 9bac f53e 89e6 5bbe c6fa af3c
000002f0: 854c f23e 1032 eabc 3442 e73e e0b3 df3d
00000300: edf4 c03c 4481 123f b8e6 de3d 6e8a d63d
00000310: 758c 9f3e 9c2b 2c3d 6f26 b93e 400c d93d
00000320: 62e1 8fbd e86f 093d 0459 90bd c62b 823f
00000330: e550 36be 20ea 753d fdd0 dbbc de11 d0bd
00000340: 005e c13d 1e08 d9be 07a1 f5be 7305 973f
00000350: 0e18 0a3f 94bd 29bf 55eb f63e 10d6 f8bc
00000360: a874 c43b 1862 80bd 937f e43e 6c02 9fbe
00000370: 79be 9cbe 1f0a 28bf af44 c23d e3fb c53e
00000380: cb4f 77bd e27b 81bd 38f8 f63e 0e97 bfbe
00000390: 486c a13d 32a7 7a3c dec5 e03e 082f d6bd
000003a0: cab7 bf3d 4f41 7ebe bb4c 75bf 35a7 0e3f
000003b0: 8465 433d c4cd 8cbd dccb e13d 8b97 053f
000003c0: 6721 6f3f 1bc4 e33e 81e5 e53c 62f6 debd
000003d0: b8b4 cf3d f90f e33e 1bf7 873c 63ae c6bd
000003e0: aa89 9d3e a423 993e 2b5f 263e 89dc 07bc
000003f0: 4162 9a3e c09a f33d 615a f2bd 8039 28bb

fc3.bias f4 [5]
0.3516384 0.25291386 0.106235646 0.18503244 0.16738391
00000000: f309 b43e ed7d 813e 1392 d93d 2579 3d3e
00000010: b066 2b3e
