dqn_solution_analysis/dqn_policy_2_planes_30_episodes.pth (torch, 23093 bytes, 6 tensors)

fc1.weight f4 [64, 6]
00000000: d972 fc3e bca3 1bbe ef05 60be cab2 343e
00000010: 22f0 f83e 8394 b9be c44c 8cbe 30ec 463e
00000020: f21d c3be 9297 ce3e e0f7 b13d 40f3 573d
00000030: 548b ccbd fa8c a93e 5835 bebe 3ff0 1dbe
00000040: 7f86 fb3e f6f2 a13e 2322 dcbe 3377 0f3f
00000050: c041 323f 24e1 8cbe e420 853e fb98 f03e
00000060: 3f86 233f b4fb 53be 161c 6dbf eb74 a5bd
00000070: eabe 27be 957f 6abc 0011 91be 84a3 50be
00000080: aa0e c4be d3ea a73a 1be0 6c3e 9053 4b3e
00000090: 1532 0b3f 040d cabe a585 e83e 319b 683f
000000a0: 7094 ea3d 7439 8d3d f0e3 c7be d7f0 893e
000000b0: 043d 7a3f 9312 4f3e 93e3 203f c5ac 443e
000000c0: 5b76 253f ce18 2a3e 99ed 20bd d2d0 85be
000000d0: 864e e0bd f022 b2bd 2740 e43e d52b a43e
000000e0: 74c2 eabe 2506 debe cda1 c9bd 047d 2f3f
000000f0: 6c08 68be 546b 6ebe 98b4 dfbd d61d 07be
00000100: 8826 8ebe 3aeb a83e 7477 843e 53c6 b93e
00000110: 9edb 7d3d aaaf b8bd 9e4c 1d3f 4fb7 24be
00000120: d849 2b3e e675 053f b690 27be d761 fc3d
00000130: 16a4 953e b5c8 2f3f d49f 16be 80dd d4bc
00000140: 2efc 0ebe 40ce f5bc d053 4bbd 0c5a 5f3e
00000150: 4253 d83e 6b25 60be 8637 1cbf a24a 8e3e
00000160: c6f6 483b a831 e6be a500 82be 10b5 98bd
00000170: 4602 4cbe 8026 383c 38bb 9abe 4002 d1bd
00000180: 7a2a e63d f921 693e 4a5d 933f 1d55 893e
00000190: 0919 1a3e 4166 fbbe 33a1 d6bd 0c63 7ebe
000001a0: be05 743e 52fa ea3d 55e7 99bf 24e0 76bd
000001b0: ad8c 113e accd 543d 9e5a 6a3e 110d 6d3f
000001c0: 1a17 d3be 521a 26bd 84bb d33e 0eb2 f63e
000001d0: c612 83bf d2a3 17be 2495 dc3e 8c56 6d3e
000001e0: f15d 653e 1cc9 e1bd 074f 153f cb3c b43d
000001f0: 7f6f 70bf 556e db3c f07b dd3d 80b2 38bb
00000200: d1ab 91be fc10 b9bd 6292 a0be 16a3 8cbe
00000210: cc03 eabc 1592 a73d ac63 08bf 60ab f33e
00000220: c412 943e f6a2 51bf 0d17 c53e 70b6 22be
00000230: e121 33bd 54d6 9d3f 3944 efbd 3029 b4bd
00000240: 2909 d33d 8285 973e c5be 5e3d 004e 5fb9
00000250: a52b ee3d d024 27bf 9aa2 51be 1fbd 533e
00000260: 8702 343f c521 d93e 559d 67be ef46 0abf
00000270: 392f b9b9 d7ab f0be 9080 063f 9be6 ff3e
00000280: 74b2 743e db4e d43e cf05 ae3e 20c8 ad3e
00000290: 35eb 883e 1c93 0dbe f824 31bd 20ed 8e3c
000002a0: 2e43 043f 8fc9 043f 9bc6 8fbf e4a9 3e3e
000002b0: c6b0 283e f5a1 293e 4082 85be e5a8 bbbe
000002c0: 4e8b b73e 253b 5abf 370b 98bc b54d 3abe
000002d0: bced c4be 6416 c1be cdbf a0bd 9876 9dbe
000002e0: 543b 87bd aa4c bd3d 51bc a23e 6051 df3e
000002f0: 0985 68be 4b25 c4be 6988 59be bad4 3c3e
00000300: 6f51 163f b63b bf3e c029 7fbf 89e8 93be
00000310: f24e 0b3e fcdf 9e3e d278 c2be 547d 0abf
00000320: c48c 81be d5b3 aa3e 2f26 ba3d 3b29 e13e
00000330: cecf ff3e 591e 423e 3e7a bfbe 97f7 133e
00000340: 4433 c03e 097b c5be 11cf 003f 4aaa 493e
00000350: 992c 40bf ac24 09bd 986e 16be 0cf0 ac3e
00000360: 2aeb 0a3f 8599 99bd 1bbb 9ebf a5cf 3abe
00000370: cc4f b5bd d417 6c3e 34b8 c2be 0ef8 9a3e
00000380: a0f0 153d 805f 033c 9a53 85be 40d4 cf3c
00000390: 0270 0a3f ce76 203f 8d80 74bf daf1 a6be
000003a0: 63b7 303e d6e2 103f a2fe 8bbe 6b7e 4b3d
000003b0: a57d 193e d0ef 583f d488 babe 3c71 3e3e
000003c0: 78fe df3e 7401 4c3e c7d3 32bf cbc9 d6bc
000003d0: 6bc4 043d 4d24 063f d694 8a3e 880b 303e
000003e0: 6ee1 9d3e 1731 b8be d1be acbe ba6d 04bf
000003f0: 712a ebbd b0f0 553c d935 0d3f 1d94 09be
0.49306372 -0.15199178 -0.21877263 0.17646328 0.48620707 -0.36246118 -0.27402318 0.19426036
-0.38108784 0.40350014 0.086898565 0.052722216 -0.09987512 0.3311537 -0.37150073 -0.15423678
0.4912605 0.31630677 -0.42994794 0.5604126 0.69631577 -0.2751552 0.26001656 0.46991715
0.6387672 -0.20701486 -0.9262098 -0.08078941 -0.16381422 -0.0143126445 -0.28333282 -0.20374876
-0.38292438 0.0012811072 0.23132364 0.19856095 0.54373294 -0.39463055 0.45414463 0.90861803
0.114540935 0.06895724 -0.3904109 0.2694156 0.9774935 0.20221929 0.6284725 0.19206531
0.6463372 0.16611025 -0.03928909 -0.2613588 -0.10952477 -0.0869807 0.44580194 0.3206469
-0.4585148 -0.43364063 -0.09845314 0.68550134 -0.22659463 -0.2328313 -0.109231174 -0.13194975
-0.27763772 0.32991964 0.25872386 0.36284122 0.06197702 -0.0901788 0.61445034 -0.16085552
0.16727388 0.52133024 -0.16363797 0.12323349 0.2922675 0.6866563 -0.14709407 -0.025984526
-0.13963386 -0.030005574 -0.049640477 0.21811694 0.4225102 -0.21889274 -0.6102222 0.27791315
0.0030664667 -0.4495976 -0.25391117 -0.0745641 -0.19922742 0.011239648 -0.30220962 -0.10205507
0.112385705 0.22766866 1.1512845 0.2682275 0.15048613 -0.4910145 -0.10479965 -0.24842471
0.23830315 0.11473526 -1.2023722 -0.06027235 0.1421382 0.051953956 0.2288613 0.9259806
-0.41228563 -0.040552445 0.41354 0.4818272 -1.0240104 -0.14808586 0.43082535 0.23177546
0.22399117 -0.11024687 0.5832371 0.08800658 -0.9392013 0.026786009 0.10814655 -0.0028182566
-0.28451398 -0.09036443 -0.3136168 -0.27468175 -0.028566264 0.0818216 -0.5327709 0.47591686
0.28920567 -0.81889284 0.3849415 -0.15889907 -0.04373348 1.2331033 -0.11682934 -0.087969184
0.103044815 0.29594046 0.05438115 -0.00021295995 0.11629418 -0.65290546 -0.20472184 0.20677613
0.70316356 0.42408577 -0.22618611 -0.54014486 -0.00035321133 -0.47006103 0.5253992 0.49980626
0.238962 0.41466412 0.33988807 0.33941746 0.2674195 -0.13825649 -0.043248147 0.017447054
0.5166501 0.51870054 -1.1232485 0.18619496 0.16473684 0.16565688 -0.26075935 -0.36652294
0.3584847 -0.852465 -0.018560035 -0.18193705 -0.38462627 -0.37712395 -0.07849083 -0.30754542
-0.06603113 0.09243138 0.317843 0.43616772 -0.22706999 -0.38309702 -0.21243443 0.18440524
0.5871801 0.37350243 -0.9967308 -0.28888348 0.13604334 0.31030262 -0.37982804 -0.54097486
-0.25302708 0.33340326 0.09089314 0.4397677 0.4996323 0.18956889 -0.3739795 0.14449917
0.37539113 -0.3857043 0.5031596 0.19693866 -0.7506805 -0.03348224 -0.14690626 0.3377689
0.5426508 -0.07499985 -1.240085 -0.18243273 -0.08853111 0.23055965 -0.3803116 0.30267376
0.03660643 0.008018374 -0.26040345 0.025369763 0.5407716 0.6268128 -0.9550865 -0.32606393
0.17257456 0.56596124 -0.27342707 0.04968111 0.14989336 0.84740925 -0.36432517 0.18597883
0.43748832 0.1992243 -0.69854397 -0.02621927 0.03241388 0.5239914 0.27066678 0.17191899
0.30836052 -0.35974953 -0.3373933 -0.5172993 -0.114827044 0.013057873 0.5516029 -0.13435407

fc1.bias f4 [64]
00000000: e0d7 943e 6744 c6be 1360 fd3e fa51 83be
00000010: 01af ba3e 557c 06be 575c 88be 0a8a 043c
00000020: 9623 ed3e dfbd a53d 83d9 8cbe 5e50 1cbe
00000030: 8661 e73e 0dfa bcbe 8870 e3bd a5d2 bfbe
00000040: c814 37bd 1e59 053f 21cb 25bd 0720 1d3e
00000050: ea6c 7d3d 889d abbe c278 bd3b d864 57be
00000060: a9ec 42be 9be3 fc3e 21bf 06be 25d7 973e
00000070: 511f f83c b160 643e baba e8bd 1587 bc3e
00000080: bf5b f93e 9325 f53e a282 f63e 9a0b 86bd
00000090: 82b3 b53e c6f1 91be 3d58 5fbe 6776 023f
000000a0: acd5 263d 07b9 113f ffeb 973e 5f4e 0e3e
000000b0: 431f 0a3c 80e2 8f3d da66 b7be 7368 df3e
000000c0: 354d 6ebe 73db b13e 4e75 063f 1850 14be
000000d0: 1078 29be c322 f13e f989 103e ce18 dbbe
000000e0: 3250 893e e380 cb3e 4f2b 0fbe 5fc5 063f
000000f0: ffb5 083f a925 1d3f fbfb ab3e e0fd a13d
0.2907095 -0.38724062 0.4948736 -0.2564848 0.36461642 -0.13133366 -0.2663295 0.008089552
0.46316212 0.08092856 -0.27509698 -0.15265033 0.45191592 -0.36909524 -0.11105448 -0.37465397
-0.044697553 0.5208911 -0.040476922 0.15344249 0.061871447 -0.33518624 0.0057822177 -0.21034563
-0.19035591 0.493924 -0.13158847 0.2965633 0.03028837 0.2230251 -0.1136374 0.3682181
0.4870281 0.4788023 0.4814654 -0.065451816 0.35488516 -0.2850477 -0.21811004 0.5096192
0.040731117 0.56922954 0.29672238 0.13897084 0.008430305 0.07025623 -0.35820657 0.43634376
-0.2327164 0.3473774 0.5252274 -0.14483678 -0.16549706 0.47096834 0.14115132 -0.42792362
0.26818997 0.3974677 -0.13981365 0.52644914 0.53402704 0.6138559 0.33590683 0.07909751

fc2.weight f4 [64, 64]
00000000: 882f 303d e0cb 2cbd 53bc 553c 64df 7cbd
00000010: c1d9 aa3d 50b1 2dbd 7891 8dbd 4e65 c3bc
00000020: a8cf b93c 7c99 333c c258 93bd d1de a7bd
00000030: 8c1c dabd 802e 58bd 304f 42bc 9811 be3d
00000040: 260c 80bd 2318 04bc 5aed 80bd fe5c 85bd
00000050: 3303 99bd 36fa fcbd 3e7b a0bd 008a 86bc
00000060: 9837 c93c 12c7 2e3d b888 babd 01c4 02be
00000070: 00b0 8dbd 700d 8abd 1adc 87bd 47cb 783d
00000080: a9b2 b93c 978a 0abc 3879 c2bd 82a6 a3bd
00000090: f44b ce3d 920d d7bd 008d 2fbb 2636 e1bd
000000a0: f757 05be bf86 113c bcc9 46bd a470 f2bd
000000b0: 09a0 b4bd 6102 d73d f8d5 6dbd a888 b33d
000000c0: face f33d 426e 96bd 7b6f b6bc 77ee c33d
000000d0: 6811 21bd af2a 223d afc0 ea3d 9e42 f2bd
000000e0: ab17 b03c 5a60 ec3d c4fb 50bd 6313 04be
000000f0: 0ad0 95bd 60e5 a6bd 67c1 2a3c 5017 703c
00000100: 8a93 dc3d 3847 e43c 06ba 403e 51b2 47bf
00000110: ec45 763e 2e0d 61bd 27a7 1ebf 81c9 8dbe
00000120: 09b7 58bc ce2f 8a3e 18fe 77bd e3d5 953d
00000130: 633c 563e e094 7abd c4ae 20be f00a 30bc
00000140: 1bb4 36bf 48b9 f3be ddc9 37bf e1e2 a83e
00000150: ec46 11be 1486 293d ef10 8dbd c22c 12bf
00000160: 8b92 9bbe c681 1ebf 2cec 19bf 317a 0e3e
00000170: 17a4 a23e 91f9 4dbf 0f64 90bd 6d01 463e
00000180: 5261 b43e b94f 9dbd e791 22bd f4b1 683e
00000190: caef 903e 748b bdbd 108e be3e cce6 04bf
000001a0: ccbc dd3e e5e0 02be 478a 78be 77ec 35be
000001b0: 6180 babe 1355 b13c 30d7 213c b3cd 123e
000001c0: 7e2d 84bd 638d 283d 7a37 603d 938f 0dbf
000001d0: a069 0dbf 93ab 033e ccc9 02bf b4ea a5bc
000001e0: f33b a83e 443a 1e3e f45f 01bf fc79 9b3d
000001f0: f249 3e3e 4d28 dc3d 9fb5 89be 953d dcbd
00000200: 00c5 3a3b 705f 6e3c 26ca e7bd 768a 883d
00000210: 385a a7bc 42fa f93d 9640 83bd 406f cebd
00000220: fed5 8ebd 18db 713d 4c1c d8bd 6467 e0bd
00000230: 2209 bb3d 3477 923d 0085 bc3c 3ed3 b33d
00000240: 4ec5 f3bd c4ec 473d 4071 5a3b 68b0 23bd
00000250: f03f 913d aec9 ebbd 9804 e53d 62f0 9cbd
00000260: e008 ef3d d0be a3bc 6290 c7bd 5e3b 8dbd
00000270: 9846 443d ac60 043d c813 a93d b4b1 7a3d
00000280: 9085 64bd 0217 b7bd bcf1 4cbd e053 bdbd
00000290: 6876 71bd 18a8 99bd 16c1 d1bd e0c6 eabb
000002a0: 1c0f b6bd 280f 18bd 9881 293d 4c19 3fbd
000002b0: 2640 a2bd 2844 23bd 10d5 f53c c0f4 d6bb
000002c0: 868d a13d 8a28 a53d 8cb8 db3d b429 d83d
000002d0: 08ba 21bd 70f7 693c 2485 fe3d 6a38 c3bd
000002e0: f09e ef3c c6b3 f7bd c0dc 763b b0c8 9bbc
000002f0: 42ea 883d 4475 e3bd baf9 8c3d c62e fcbd
00000300: 1855 a53d 244d 04bd 0821 37bd 22e9 fe3e
00000310: e6ee c43c 3c5c 463d 4123 c33c 18e4 9b3d
00000320: 3d54 53bb 91b5 48bf e03a 93bb 6b13 cf3d
00000330: dd5e 81be 2c43 94bd fbe5 113e 7061 e23c
00000340: 71ff a13e 799f d1be cab2 733e 4a1d c3bc
00000350: 7eeb bfbe a0ae 8b3d 776b 8a3e 44db 9b3e
00000360: f56e 073e 96e2 9e3e 2294 b2bd 2c2d 933d
00000370: 8f97 f03d d75e 213e 3e19 a1bd cbe2 46bd
00000380: 1a9d 2dbe 3353 92be d330 603e 9f78 91be
00000390: 3257 583e 04f1 6f3d 3177 dfbe 8fb1 60be
000003a0: 7d5c f7be 88eb d93d 44b9 a83b 6ed0 a23e
000003b0: 8515 b63e 9440 fa3d 7cec 36bd 51ec 7cbe
000003c0: 48ff 733d eb09 9cba 6b3e a2bd 8299 79bd
000003d0: 59cb 8b3d 0037 03bf 7574 d23e ee85 c3be
000003e0: 8036 0ebf 5bf1 d4be 8afc 95be e8c0 0cbd
000003f0: 59fd b1bd c6fe 2e3d 48f7 e5bd 1d4b 5d3e
0.04301408 -0.042186618 0.013045388 -0.06173648 0.083423145 -0.042405427 -0.069125116 -0.023852017
0.022682026 0.0109618865 -0.071946636 -0.08196796 -0.10649976 -0.05277872 -0.0118597 0.092806995
-0.06252317 -0.008062395 -0.06295271 -0.065118775 -0.07471313 -0.123524114 -0.078360066 -0.016423225
0.024562642 0.042670317 -0.09108108 -0.12770082 -0.06918335 -0.06740844 -0.06633778 0.060740735
0.0226682 -0.008455894 -0.09495777 -0.07990743 0.10073081 -0.10500635 -0.0026786923 -0.10996656
-0.13021837 0.008882224 -0.048532233 -0.11837891 -0.08819587 0.104985006 -0.058065385 0.087662995
0.11904712 -0.07345249 -0.022269955 0.09566968 -0.03932324 0.039591487 0.11462533 -0.118291125
0.02149566 0.11541815 -0.051021352 -0.1289802 -0.07315071 -0.081492186 0.010422087 0.014653996
0.10770328 0.027865991 0.18820962 -0.78006464 0.2405011 -0.05494421 -0.61973804 -0.27692798
-0.013227233 0.26989597 -0.060545057 0.07316186 0.20921473 -0.061177135 -0.15691668 -0.010744795
-0.7136857 -0.47602296 -0.71792394 0.32985595 -0.14187211 0.041387632 -0.068879955 -0.57099545
-0.3038524 -0.6191677 -0.60125995 0.139138 0.31765816 -0.80458933 -0.07050335 0.19336481
0.352305 -0.076812215 -0.039689925 0.22724134 0.28307945 -0.09255114 0.3721776 -0.5191467
0.43308103 -0.12781103 -0.24271499 -0.17765985 -0.3642607 0.021647012 0.009877965 0.1433628
-0.064539894 0.041150462 0.054740407 -0.552972 -0.55239296 0.12858419 -0.5108917 -0.020253517
0.32858238 0.15451914 -0.5053704 0.07591626 0.18582895 0.10749874 -0.26896378 -0.10753933
0.0028498769 0.014549121 -0.11317854 0.06667034 -0.020428762 0.12205936 -0.06408803 -0.10079813
-0.069744095 0.059046835 -0.10552272 -0.1095722 0.09132601 0.071516424 0.023012638 0.087805256
-0.11902867 0.04880978 0.0033331662 -0.039963156 0.07092273 -0.11513077 0.11182517 -0.07663037
0.11671615 -0.019988447 -0.09744336 -0.06896089 0.047918886 0.032318756 0.08255726 0.061204627
-0.055791438 -0.08939935 -0.050035223 -0.092445135 -0.05895081 -0.075027645 -0.10241906 -0.007164821
-0.08889601 -0.03712383 0.041383356 -0.046654984 -0.079223916 -0.03985992 0.030008823 -0.006559938
0.078883216 0.08064373 0.10728559 0.10554829 -0.039484054 0.014280185 0.12427738 -0.095322445
0.029250592 -0.12094836 0.0037668198 -0.019016594 0.06685306 -0.11106351 0.06883569 -0.12313609
0.08072871 -0.03230013 -0.044709235 0.4978724 0.024039697 0.048427805 0.023820521 0.07611865
-0.0032246255 -0.7840205 -0.0044931024 0.101111256 -0.25267687 -0.072393745 0.14247887 0.027634352
0.316402 -0.4094198 0.23798671 -0.023817677 -0.37484354 0.068204165 0.27035114 0.30440724
0.1322592 0.31032246 -0.0871966 0.0718635 0.117476575 0.15758835 -0.07866143 -0.04855613
-0.1695446 -0.285791 0.21893625 -0.2841234 0.21127012 0.05857946 -0.43645623 -0.21942733
-0.4831275 0.10640627 0.0051490385 0.31799644 0.35563293 0.122193485 -0.044659123 -0.24699523
0.059569627 -0.0011904811 -0.079220615 -0.060937412 0.06825895 -0.512558 0.41104475 -0.38188118
-0.5555191 -0.4159039 -0.29294235 -0.034363657 -0.086909 0.04272344 -0.11228806 0.21610685

fc2.bias f4 [64]
00000000: 9e88 373d daba 02bc ee20 9fbd caec ab3d
00000010: 20da f93d 30ce fd3c 63ee 913d 40be ac3d
00000020: bfec f3bc fe6a a03d 373f d4bd 501a 82bd
00000030: 429f b0bd 503b bf3c f7fb 373d 6e6b bd3d
00000040: a1d6 de3d 8824 8d3c f33f e63d 45aa f2bd
00000050: 8a9f 1d3c e0d2 90bd bbe3 e03d 5ad9 e8bd
00000060: b464 683e 8a24 04be 96f8 973d 8757 b63d
00000070: 6f6a c9bd a15e 7d3e 798c 963c c5c1 293e
00000080: 5759 a53d 632f e8bd f70d 7c3d ef80 20be
00000090: cae8 2b3e 98e1 3b3c ed30 203e 4c02 84bd
000000a0: a5d4 553d 9987 6e3e 6495 203d e6ba b43d
000000b0: a4bb c9bd 6de1 143c f04b 22bd a9ba 36bd
000000c0: a743 993c effb 523e 9a14 983d fc1b e1bd
000000d0: 0ab5 9cbd f9d3 103e 97e9 973d 405c 133e
000000e0: c88f c13c be40 353e 8778 8f3d 5e00 d83c
000000f0: bd40 153e dbe3 ab3d 02f5 c53c 52d5 3dbd
0.044808023 -0.007979119 -0.07769953 0.08394773 0.12199807 0.030982107 0.07125547 0.08434725
-0.029775975 0.07832907 -0.1036362 -0.06352675 -0.08624126 0.023343712 0.044918027 0.09249006
0.10880781 0.017229334 0.11242666 -0.118488826 0.009620557 -0.07071471 0.10980936 -0.113695815
0.22694665 -0.12904564 0.07420461 0.08903413 -0.09834754 0.2474313 0.01837753 0.16577823
0.08073681 -0.11337163 0.061536755 -0.15674184 0.1678802 0.01146736 0.15643664 -0.064457506
0.052204747 0.23293914 0.03920497 0.088247105 -0.09850243 0.009086949 -0.0396232 -0.044611607
0.018709017 0.20603918 0.074258044 -0.10991666 -0.07651718 0.14143361 0.074176006 0.1439066
0.02362813 0.17700478 0.07005411 0.026367363 0.14575477 0.08393069 0.02416468 -0.046346016

fc3.weight f4 [5, 64]
00000000: fa01 8e3d 375b 59bc 88d9 9ebd ff08 523e
00000010: 35ba a13e be41 c83d 76db 9bbd d0ce 2fbc
00000020: 2281 b43d d2e4 933c 3ca4 1abf a2da 823d
00000030: cac8 aa3d eecf c73d 512d c0be b03c fc3d
00000040: 8ebb 163e 5cd1 9dbd 1267 0abf 993f eabd
00000050: b05c 9b3d 1131 7cbe 7ec9 5fbd ec04 58bd
00000060: 3228 4e3e 8914 2d3c e275 c83c a990 443e
00000070: 20d4 80bd 9a85 493e 2a52 eb3d 4e9b 823e
00000080: 28f1 febc 1cad 963d b60c 2ebf ebd3 ff3c
00000090: 72c2 80bb 14d7 00bd acb0 383e 405c 94bd
000000a0: 1d13 f73d 09a9 a93e 441b b03d 96f7 0f3c
000000b0: c07a d7bd aca0 2fbd 02a9 95bd d144 1e3c
000000c0: 1d8e 80be 155c 3e3e b762 bd3c 903e d4bc
000000d0: 106a e2bc 1b80 a53e 5f46 3fbf 065e 483e
000000e0: ec88 7a3e 0e7c 813e 6392 a93e c7e4 a63d
000000f0: 455c 0cbf ecc0 ce3d d52f d0be 18e3 bbbd
00000100: 0ace 93bd 5e83 5e3e 265e aebd 4287 8e3e
00000110: bb24 ac3e 0659 a9bd 7675 58bd 1a60 e63d
00000120: 708d a33c ec51 f7bd 091c 1dbf 4037 593d
00000130: 9d1c 93bc 7cfa e1bd cdcb 8fbe bece b23d
00000140: 012a a63e b04f c63c 25e1 dbbe 8802 ff3c
00000150: 44d8 f83e ea87 a7be 87c5 c33c 48d7 973d
00000160: a355 b13e f32d 59bc 3713 5d3d 5a30 d53c
00000170: 0d08 9b3a 4e00 0e3d 1542 243e cb71 843e
00000180: 94ca 88be e9e0 89bd 1c12 f6be 37df 9d3d
00000190: c1cf 483d db86 f1bb 894f 493e b4ae 253d
000001a0: e53b 07ba d0e2 d73e c0c6 953d fdc4 333e
000001b0: 2e37 9a3d 64b6 0e3b 28e4 7dbd bdd3 993d
000001c0: eab4 adbe 7987 d93d 0d0a df3d 9401 fe3d
000001d0: 908d e9bc d7fb c63e 13f8 c7be f5c4 39be
000001e0: 2216 013e 6f1f 943e 2703 1e3c c2e0 d63c
000001f0: d895 9ebe 1bb8 ba3d a9f1 58be ee58 9bbd
00000200: 30e7 fd3c f728 7abd 4044 22bb 7ff5 ff3e
00000210: 4134 a03e e850 d5bc 6c43 203c 20ed f4bb
00000220: 13db 9ebd ab75 c9bd 4bfb 0c3e 1b50 ffbc
00000230: fe81 52bd 78f7 84bc 128c 78be f022 cd3d
00000240: 6429 2d3e 7089 5b3d b533 63be cea3 593c
00000250: 56eb bf3e 5d6f 4cbe 4265 0cbe 009e 80bd
00000260: 51ef 1b3e 8a73 b6bd 5cf0 223e 4a7d fb3c
00000270: 159b 9f3d 0105 77be 8bc2 d23d a8a1 973e
00000280: 2491 4bbe 02db d9bd ee06 0cbf 89fd 36bd
00000290: fae9 16bd f1a0 113e 8430 943e 5088 ae3d
000002a0: fed3 4cbe fa53 c03e f3c9 a43c 7b20 f63d
000002b0: 510a acbd 3a69 d13d 0806 c4bd 760e d7bd
000002c0: f6fb 3abd 280c 3a3e f1dc 92bd 0870 7d3d
000002d0: 780f e33c d4b0 603e 23f3 0bbf f57f 03be
000002e0: db80 243e 713e 9d3e 3f68 153d e7c6 d13c
000002f0: b9bc 71be 0e3f 92bc 548a 0cbd 7218 e33d
00000300: 1600 8f3b 9a37 d93e b8e6 de3d 87ae a33e
00000310: c11f 58be 9c2b 2c3d d21f b53c 400c d93d
00000320: 62e1 8fbd e86f 093d 35cc 4cbe 0005 da3c
00000330: 8bc9 7fbd 20ea 753d e378 b4be de11 d0bd
00000340: a6d6 af3e dc00 eebd b66a 21bf 06c0 fe3d
00000350: 0dd9 0f3e 67fa 1dbe f6ca 433f 10d6 f8bc
00000360: 7c3b 973e e26f a3bd fa4c aa3e 5d36 673e
00000370: 0bd8 a2bd eda4 423e 70a0 fc3e f02d 9c3e
00000380: 7633 0dbf 12d9 78bd 8833 edbe 6416 d3bd
00000390: 9946 aa3e 46bf 7ebd 49c0 9d3e 082f d6bd
000003a0: 506e 9a3e f98a 83be 0883 9b3d 2f8d cc3e
000003b0: 8465 433d c4cd 8cbd dccb e13d 4af2 5d3d
000003c0: 6f6a eabe c645 a53e 0625 5e3d 62f6 debd
000003d0: b8b4 cf3d 9bba 023e 321a f13d e718 f1be
000003e0: f8fe 5bbe e99b 5f3e f4a4 4cbe f198 1fbd
000003f0: c7c9 ecbe 31c2 803f ad45 afbe 8039 28bb
0.06933971 -0.013266376 -0.077563345 0.20511244 0.31587377 0.09778164 -0.07610218 -0.01073046
0.08813693 0.018053446 -0.6040685 0.06389357 0.08339079 0.09756456 -0.37534574 0.12316263
0.14719984 -0.07705948 -0.5406352 -0.114379115 0.07586038 -0.24628092 -0.054635517 -0.05273907
0.20132521 0.010563978 0.024470273 0.19195808 -0.0629046 0.19679871 0.11490281 0.25509113
-0.031120852 0.07357237 -0.67988145 0.03122898 -0.0039294297 -0.031455114 0.18036145 -0.07244158
0.120641924 0.33136776 0.085989505 0.008787056 -0.105214596 -0.042877838 -0.07307626 0.009659962
-0.25108424 0.18589814 0.02311836 -0.025908738 -0.027638465 0.323243 -0.7471675 0.19567117
0.24466294 0.2528996 0.33119497 0.081491046 -0.5482829 0.10095391 -0.40661493 -0.09174174
-0.07217033 0.217298 -0.08514051 0.2783757 0.33621773 -0.08268933 -0.052846394 0.11248799
0.019964904 -0.12076172 -0.61370903 0.053031206 -0.01795798 -0.11034104 -0.28085175 0.08730839
0.3245392 0.02420792 -0.4294521 0.031129137 0.48602498 -0.32720882 0.0238979 0.074141085
0.34635648 -0.013255584 0.053973403 0.026024032 0.0011827961 0.03466826 0.16040833 0.25868067
-0.26717055 -0.06732351 -0.4806069 0.077085905 0.049026255 -0.0073708124 0.19659247 0.040449813
-0.0005158766 0.42165232 0.07313299 0.17555614 0.07530056 0.0021776194 -0.061985165 0.07511089
-0.3392709 0.106215425 0.10890589 0.12402645 -0.028509885 0.38864014 -0.39056453 -0.1814154
0.12606099 0.28930232 0.009644306 0.02623022 -0.30973697 0.091171466 -0.21185936 -0.07585321
0.030994028 -0.061074223 -0.0024759918 0.49991986 0.31289867 -0.026039556 0.0097817 -0.0074745566
-0.07756629 -0.098368965 0.13767736 -0.031166127 -0.0513935 -0.016231284 -0.24272183 0.100164294
0.1691032 0.053597867 -0.22187693 0.013283683 0.37484235 -0.19964357 -0.13710502 -0.06280136
0.1522801 -0.08908756 0.15912002 0.03069939 0.077932514 -0.24123003 0.102910124 0.2961552
-0.19879586 -0.106374756 -0.54698074 -0.044675384 -0.03684423 0.1422155 0.28943264 0.08522093
-0.20002744 0.3756407 0.020115828 0.12017914 -0.08400405 0.102251485 -0.09571463 -0.10500805
-0.045650445 0.181687 -0.071710475 0.06187442 0.027717337 0.21942455 -0.5466787 -0.1284178
0.1606478 0.30711702 0.03647637 0.02560754 -0.23607148 -0.017852332 -0.034311607 0.11088647
0.004364024 0.42425233 0.1088385 0.3196909 -0.21105863 0.042033777 0.0221099 0.105980396
-0.0702541 0.033553988 -0.19999774 0.026613712 -0.062448066 0.060037732 -0.3524848 -0.10159658
0.3434345 -0.11621258 -0.6305345 0.12438969 0.14047642 -0.15427552 0.7648157 -0.03037551
0.2953757 -0.07980324 0.33261853 0.22579332 -0.07951363 0.19008227 0.49341154 0.30503798
-0.5515665 -0.06075389 -0.46328378 -0.10307005 0.33256987 -0.06219413 0.30810764 -0.10458189
0.30162287 -0.25691965 0.075933516 0.39951465 0.047704235 -0.06875184 0.11025211 0.054186143
-0.45784327 0.32279795 0.054234527 -0.108868375 0.10141891 0.12766497 0.117725745 -0.4708931
-0.21483982 0.21836819 -0.199848 -0.038964216 -0.46247694 1.0059263 -0.34232846 -0.0025669038

fc3.bias f4 [5]
00000000: 364c 7a3e d0ce 263d 6192 04be 73f8 003d
00000010: d9f5 4a3d
0.24443135 0.040724576 -0.12946464 0.03148694 0.049550865
